…
/data/stars/share/libraries/anaconda/lib/python2.7/site-packages/matplotlib/__init__.py:1401: UserWarning:  This call to matplotlib.use() has no effect
because the backend has already been chosen;
matplotlib.use() must be called *before* pylab, matplotlib.pyplot,
or matplotlib.backends is imported for the first time.

  warnings.warn(_use_error_msg)
WARNING: Logging before InitGoogleLogging() is written to STDERR
I0703 18:25:02.381177 15959 net.cpp:49] Initializing net from parameters: 
name: "VGG_ILSVRC_16_layers"
input: "data"
input: "im_info"
state {
  phase: TEST
}
input_shape {
  dim: 1
  dim: 3
  dim: 224
  dim: 224
}
input_shape {
  dim: 1
  dim: 3
}
layer {
  name: "conv1_1"
  type: "Convolution"
  bottom: "data"
  top: "conv1_1"
  convolution_param {
    num_output: 64
    pad: 1
    kernel_size: 3
  }
}
layer {
  name: "relu1_1"
  type: "ReLU"
  bottom: "conv1_1"
  top: "conv1_1"
}
layer {
  name: "conv1_2"
  type: "Convolution"
  bottom: "conv1_1"
  top: "conv1_2"
  convolution_param {
    num_output: 64
    pad: 1
    kernel_size: 3
  }
}
layer {
  name: "relu1_2"
  type: "ReLU"
  bottom: "conv1_2"
  top: "conv1_2"
}
layer {
  name: "pool1"
  type: "Pooling"
  bottom: "conv1_2"
  top: "pool1"
  pooling_param {
    pool: MAX
    kernel_size: 2
    stride: 2
  }
}
layer {
  name: "conv2_1"
  type: "Convolution"
  bottom: "pool1"
  top: "conv2_1"
  convolution_param {
    num_output: 128
    pad: 1
    kernel_size: 3
  }
}
layer {
  name: "relu2_1"
  type: "ReLU"
  bottom: "conv2_1"
  top: "conv2_1"
}
layer {
  name: "conv2_2"
  type: "Convolution"
  bottom: "conv2_1"
  top: "conv2_2"
  convolution_param {
    num_output: 128
    pad: 1
    kernel_size: 3
  }
}
layer {
  name: "relu2_2"
  type: "ReLU"
  bottom: "conv2_2"
  top: "conv2_2"
}
layer {
  name: "pool2"
  type: "Pooling"
  bottom: "conv2_2"
  top: "pool2"
  pooling_param {
    pool: MAX
    kernel_size: 2
    stride: 2
  }
}
layer {
  name: "conv3_1"
  type: "Convolution"
  bottom: "pool2"
  top: "conv3_1"
  convolution_param {
    num_output: 256
    pad: 1
    kernel_size: 3
  }
}
layer {
  name: "relu3_1"
  type: "ReLU"
  bottom: "conv3_1"
  top: "conv3_1"
}
layer {
  name: "conv3_2"
  type: "Convolution"
  bottom: "conv3_1"
  top: "conv3_2"
  convolution_param {
    num_output: 256
    pad: 1
    kernel_size: 3
  }
}
layer {
  name: "relu3_2"
  type: "ReLU"
  bottom: "conv3_2"
  top: "conv3_2"
}
layer {
  name: "conv3_3"
  type: "Convolution"
  bottom: "conv3_2"
  top: "conv3_3"
  convolution_param {
    num_output: 256
    pad: 1
    kernel_size: 3
  }
}
layer {
  name: "relu3_3"
  type: "ReLU"
  bottom: "conv3_3"
  top: "conv3_3"
}
layer {
  name: "pool3"
  type: "Pooling"
  bottom: "conv3_3"
  top: "pool3"
  pooling_param {
    pool: MAX
    kernel_size: 2
    stride: 2
  }
}
layer {
  name: "conv4_1"
  type: "Convolution"
  bottom: "pool3"
  top: "conv4_1"
  convolution_param {
    num_output: 512
    pad: 1
    kernel_size: 3
  }
}
layer {
  name: "relu4_1"
  type: "ReLU"
  bottom: "conv4_1"
  top: "conv4_1"
}
layer {
  name: "conv4_2"
  type: "Convolution"
  bottom: "conv4_1"
  top: "conv4_2"
  convolution_param {
    num_output: 512
    pad: 1
    kernel_size: 3
  }
}
layer {
  name: "relu4_2"
  type: "ReLU"
  bottom: "conv4_2"
  top: "conv4_2"
}
layer {
  name: "conv4_3"
  type: "Convolution"
  bottom: "conv4_2"
  top: "conv4_3"
  convolution_param {
    num_output: 512
    pad: 1
    kernel_size: 3
  }
}
layer {
  name: "relu4_3"
  type: "ReLU"
  bottom: "conv4_3"
  top: "conv4_3"
}
layer {
  name: "pool4"
  type: "Pooling"
  bottom: "conv4_3"
  top: "pool4"
  pooling_param {
    pool: MAX
    kernel_size: 2
    stride: 2
  }
}
layer {
  name: "conv5_1"
  type: "Convolution"
  bottom: "pool4"
  top: "conv5_1"
  convolution_param {
    num_output: 512
    pad: 1
    kernel_size: 3
  }
}
layer {
  name: "relu5_1"
  type: "ReLU"
  bottom: "conv5_1"
  top: "conv5_1"
}
layer {
  name: "conv5_2"
  type: "Convolution"
  bottom: "conv5_1"
  top: "conv5_2"
  convolution_param {
    num_output: 512
    pad: 1
    kernel_size: 3
  }
}
layer {
  name: "relu5_2"
  type: "ReLU"
  bottom: "conv5_2"
  top: "conv5_2"
}
layer {
  name: "conv5_3"
  type: "Convolution"
  bottom: "conv5_2"
  top: "conv5_3"
  convolution_param {
    num_output: 512
    pad: 1
    kernel_size: 3
  }
}
layer {
  name: "relu5_3"
  type: "ReLU"
  bottom: "conv5_3"
  top: "conv5_3"
}
layer {
  name: "rpn_conv/3x3"
  type: "Convolution"
  bottom: "conv5_3"
  top: "rpn/output"
  convolution_param {
    num_output: 512
    pad: 1
    kernel_size: 3
    stride: 1
  }
}
layer {
  name: "rpn_relu/3x3"
  type: "ReLU"
  bottom: "rpn/output"
  top: "rpn/output"
}
layer {
  name: "rpn_cls_score"
  type: "Convolution"
  bottom: "rpn/output"
  top: "rpn_cls_score"
  convolution_param {
    num_output: 18
    pad: 0
    kernel_size: 1
    stride: 1
  }
}
layer {
  name: "rpn_bbox_pred"
  type: "Convolution"
  bottom: "rpn/output"
  top: "rpn_bbox_pred"
  convolution_param {
    num_output: 36
    pad: 0
    kernel_size: 1
    stride: 1
  }
}
layer {
  name: "rpn_cls_score_reshape"
  type: "Reshape"
  bottom: "rpn_cls_score"
  top: "rpn_cls_score_reshape"
  reshape_param {
    shape {
      dim: 0
      dim: 2
      dim: -1
      dim: 0
    }
  }
}
layer {
  name: "rpn_cls_prob"
  type: "Softmax"
  bottom: "rpn_cls_score_reshape"
  top: "rpn_cls_prob"
}
layer {
  name: "rpn_cls_prob_reshape"
  type: "Reshape"
  bottom: "rpn_cls_prob"
  top: "rpn_cls_prob_reshape"
  reshape_param {
    shape {
      dim: 0
      dim: 18
      dim: -1
      dim: 0
    }
  }
}
layer {
  name: "proposal"
  type: "Python"
  bottom: "rpn_cls_prob_reshape"
  bottom: "rpn_bbox_pred"
  bottom: "im_info"
  top: "rois"
  python_param {
    module: "rpn.proposal_layer"
    layer: "ProposalLayer"
    param_str: "\'feat_stride\': 16"
  }
}
layer {
  name: "roi_pool5"
  type: "ROIPooling"
  bottom: "conv5_3"
  bottom: "rois"
  top: "pool5"
  roi_pooling_param {
    pooled_h: 7
    pooled_w: 7
    spatial_scale: 0.0625
  }
}
layer {
  name: "fc6"
  type: "InnerProduct"
  bottom: "pool5"
  top: "fc6"
  inner_product_param {
    num_output: 4096
  }
}
layer {
  name: "relu6"
  type: "ReLU"
  bottom: "fc6"
  top: "fc6"
}
layer {
  name: "fc7"
  type: "InnerProduct"
  bottom: "fc6"
  top: "fc7"
  inner_product_param {
    num_output: 4096
  }
}
layer {
  name: "relu7"
  type: "ReLU"
  bottom: "fc7"
  top: "fc7"
}
layer {
  name: "cls_score"
  type: "InnerProduct"
  bottom: "fc7"
  top: "cls_score"
  inner_product_param {
    num_output: 21
  }
}
layer {
  name: "bbox_pred"
  type: "InnerProduct"
  bottom: "fc7"
  top: "bbox_pred"
  inner_product_param {
    num_output: 84
  }
}
layer {
  name: "cls_prob"
  type: "Softmax"
  bottom: "cls_score"
  top: "cls_prob"
}
I0703 18:25:02.381371 15959 net.cpp:413] Input 0 -> data
I0703 18:25:02.821923 15959 net.cpp:413] Input 1 -> im_info
I0703 18:25:02.821988 15959 layer_factory.hpp:77] Creating layer conv1_1
I0703 18:25:02.822010 15959 net.cpp:106] Creating Layer conv1_1
I0703 18:25:02.822016 15959 net.cpp:454] conv1_1 <- data
I0703 18:25:02.822023 15959 net.cpp:411] conv1_1 -> conv1_1
I0703 18:25:03.003412 15959 net.cpp:150] Setting up conv1_1
I0703 18:25:03.003449 15959 net.cpp:157] Top shape: 1 64 224 224 (3211264)
I0703 18:25:03.003453 15959 net.cpp:165] Memory required for data: 12845056
I0703 18:25:03.003473 15959 layer_factory.hpp:77] Creating layer relu1_1
I0703 18:25:03.003486 15959 net.cpp:106] Creating Layer relu1_1
I0703 18:25:03.003490 15959 net.cpp:454] relu1_1 <- conv1_1
I0703 18:25:03.003496 15959 net.cpp:397] relu1_1 -> conv1_1 (in-place)
I0703 18:25:03.003808 15959 net.cpp:150] Setting up relu1_1
I0703 18:25:03.003818 15959 net.cpp:157] Top shape: 1 64 224 224 (3211264)
I0703 18:25:03.003823 15959 net.cpp:165] Memory required for data: 25690112
I0703 18:25:03.003826 15959 layer_factory.hpp:77] Creating layer conv1_2
I0703 18:25:03.003837 15959 net.cpp:106] Creating Layer conv1_2
I0703 18:25:03.003840 15959 net.cpp:454] conv1_2 <- conv1_1
I0703 18:25:03.003846 15959 net.cpp:411] conv1_2 -> conv1_2
I0703 18:25:03.004984 15959 net.cpp:150] Setting up conv1_2
I0703 18:25:03.005002 15959 net.cpp:157] Top shape: 1 64 224 224 (3211264)
I0703 18:25:03.005005 15959 net.cpp:165] Memory required for data: 38535168
I0703 18:25:03.005014 15959 layer_factory.hpp:77] Creating layer relu1_2
I0703 18:25:03.005019 15959 net.cpp:106] Creating Layer relu1_2
I0703 18:25:03.005023 15959 net.cpp:454] relu1_2 <- conv1_2
I0703 18:25:03.005028 15959 net.cpp:397] relu1_2 -> conv1_2 (in-place)
I0703 18:25:03.005182 15959 net.cpp:150] Setting up relu1_2
I0703 18:25:03.005189 15959 net.cpp:157] Top shape: 1 64 224 224 (3211264)
I0703 18:25:03.005192 15959 net.cpp:165] Memory required for data: 51380224
I0703 18:25:03.005195 15959 layer_factory.hpp:77] Creating layer pool1
I0703 18:25:03.005204 15959 net.cpp:106] Creating Layer pool1
I0703 18:25:03.005208 15959 net.cpp:454] pool1 <- conv1_2
I0703 18:25:03.005211 15959 net.cpp:411] pool1 -> pool1
I0703 18:25:03.005250 15959 net.cpp:150] Setting up pool1
I0703 18:25:03.005255 15959 net.cpp:157] Top shape: 1 64 112 112 (802816)
I0703 18:25:03.005259 15959 net.cpp:165] Memory required for data: 54591488
I0703 18:25:03.005261 15959 layer_factory.hpp:77] Creating layer conv2_1
I0703 18:25:03.005267 15959 net.cpp:106] Creating Layer conv2_1
I0703 18:25:03.005271 15959 net.cpp:454] conv2_1 <- pool1
I0703 18:25:03.005275 15959 net.cpp:411] conv2_1 -> conv2_1
I0703 18:25:03.007545 15959 net.cpp:150] Setting up conv2_1
I0703 18:25:03.007557 15959 net.cpp:157] Top shape: 1 128 112 112 (1605632)
I0703 18:25:03.007560 15959 net.cpp:165] Memory required for data: 61014016
I0703 18:25:03.007570 15959 layer_factory.hpp:77] Creating layer relu2_1
I0703 18:25:03.007575 15959 net.cpp:106] Creating Layer relu2_1
I0703 18:25:03.007578 15959 net.cpp:454] relu2_1 <- conv2_1
I0703 18:25:03.007583 15959 net.cpp:397] relu2_1 -> conv2_1 (in-place)
I0703 18:25:03.007896 15959 net.cpp:150] Setting up relu2_1
I0703 18:25:03.007906 15959 net.cpp:157] Top shape: 1 128 112 112 (1605632)
I0703 18:25:03.007910 15959 net.cpp:165] Memory required for data: 67436544
I0703 18:25:03.007912 15959 layer_factory.hpp:77] Creating layer conv2_2
I0703 18:25:03.007920 15959 net.cpp:106] Creating Layer conv2_2
I0703 18:25:03.007923 15959 net.cpp:454] conv2_2 <- conv2_1
I0703 18:25:03.007928 15959 net.cpp:411] conv2_2 -> conv2_2
I0703 18:25:03.008841 15959 net.cpp:150] Setting up conv2_2
I0703 18:25:03.008852 15959 net.cpp:157] Top shape: 1 128 112 112 (1605632)
I0703 18:25:03.008855 15959 net.cpp:165] Memory required for data: 73859072
I0703 18:25:03.008862 15959 layer_factory.hpp:77] Creating layer relu2_2
I0703 18:25:03.008868 15959 net.cpp:106] Creating Layer relu2_2
I0703 18:25:03.008872 15959 net.cpp:454] relu2_2 <- conv2_2
I0703 18:25:03.008877 15959 net.cpp:397] relu2_2 -> conv2_2 (in-place)
I0703 18:25:03.009299 15959 net.cpp:150] Setting up relu2_2
I0703 18:25:03.009310 15959 net.cpp:157] Top shape: 1 128 112 112 (1605632)
I0703 18:25:03.009312 15959 net.cpp:165] Memory required for data: 80281600
I0703 18:25:03.009315 15959 layer_factory.hpp:77] Creating layer pool2
I0703 18:25:03.009321 15959 net.cpp:106] Creating Layer pool2
I0703 18:25:03.009325 15959 net.cpp:454] pool2 <- conv2_2
I0703 18:25:03.009330 15959 net.cpp:411] pool2 -> pool2
I0703 18:25:03.009367 15959 net.cpp:150] Setting up pool2
I0703 18:25:03.009372 15959 net.cpp:157] Top shape: 1 128 56 56 (401408)
I0703 18:25:03.009376 15959 net.cpp:165] Memory required for data: 81887232
I0703 18:25:03.009378 15959 layer_factory.hpp:77] Creating layer conv3_1
I0703 18:25:03.009384 15959 net.cpp:106] Creating Layer conv3_1
I0703 18:25:03.009387 15959 net.cpp:454] conv3_1 <- pool2
I0703 18:25:03.009392 15959 net.cpp:411] conv3_1 -> conv3_1
I0703 18:25:03.011178 15959 net.cpp:150] Setting up conv3_1
I0703 18:25:03.011190 15959 net.cpp:157] Top shape: 1 256 56 56 (802816)
I0703 18:25:03.011194 15959 net.cpp:165] Memory required for data: 85098496
I0703 18:25:03.011204 15959 layer_factory.hpp:77] Creating layer relu3_1
I0703 18:25:03.011209 15959 net.cpp:106] Creating Layer relu3_1
I0703 18:25:03.011214 15959 net.cpp:454] relu3_1 <- conv3_1
I0703 18:25:03.011221 15959 net.cpp:397] relu3_1 -> conv3_1 (in-place)
I0703 18:25:03.011378 15959 net.cpp:150] Setting up relu3_1
I0703 18:25:03.011384 15959 net.cpp:157] Top shape: 1 256 56 56 (802816)
I0703 18:25:03.011387 15959 net.cpp:165] Memory required for data: 88309760
I0703 18:25:03.011390 15959 layer_factory.hpp:77] Creating layer conv3_2
I0703 18:25:03.011397 15959 net.cpp:106] Creating Layer conv3_2
I0703 18:25:03.011400 15959 net.cpp:454] conv3_2 <- conv3_1
I0703 18:25:03.011405 15959 net.cpp:411] conv3_2 -> conv3_2
I0703 18:25:03.013941 15959 net.cpp:150] Setting up conv3_2
I0703 18:25:03.013952 15959 net.cpp:157] Top shape: 1 256 56 56 (802816)
I0703 18:25:03.013955 15959 net.cpp:165] Memory required for data: 91521024
I0703 18:25:03.013962 15959 layer_factory.hpp:77] Creating layer relu3_2
I0703 18:25:03.013967 15959 net.cpp:106] Creating Layer relu3_2
I0703 18:25:03.013972 15959 net.cpp:454] relu3_2 <- conv3_2
I0703 18:25:03.013977 15959 net.cpp:397] relu3_2 -> conv3_2 (in-place)
I0703 18:25:03.014291 15959 net.cpp:150] Setting up relu3_2
I0703 18:25:03.014299 15959 net.cpp:157] Top shape: 1 256 56 56 (802816)
I0703 18:25:03.014302 15959 net.cpp:165] Memory required for data: 94732288
I0703 18:25:03.014307 15959 layer_factory.hpp:77] Creating layer conv3_3
I0703 18:25:03.014313 15959 net.cpp:106] Creating Layer conv3_3
I0703 18:25:03.014317 15959 net.cpp:454] conv3_3 <- conv3_2
I0703 18:25:03.014322 15959 net.cpp:411] conv3_3 -> conv3_3
I0703 18:25:03.016861 15959 net.cpp:150] Setting up conv3_3
I0703 18:25:03.016875 15959 net.cpp:157] Top shape: 1 256 56 56 (802816)
I0703 18:25:03.016878 15959 net.cpp:165] Memory required for data: 97943552
I0703 18:25:03.016885 15959 layer_factory.hpp:77] Creating layer relu3_3
I0703 18:25:03.016891 15959 net.cpp:106] Creating Layer relu3_3
I0703 18:25:03.016896 15959 net.cpp:454] relu3_3 <- conv3_3
I0703 18:25:03.016899 15959 net.cpp:397] relu3_3 -> conv3_3 (in-place)
I0703 18:25:03.017216 15959 net.cpp:150] Setting up relu3_3
I0703 18:25:03.017228 15959 net.cpp:157] Top shape: 1 256 56 56 (802816)
I0703 18:25:03.017231 15959 net.cpp:165] Memory required for data: 101154816
I0703 18:25:03.017235 15959 layer_factory.hpp:77] Creating layer pool3
I0703 18:25:03.017243 15959 net.cpp:106] Creating Layer pool3
I0703 18:25:03.017247 15959 net.cpp:454] pool3 <- conv3_3
I0703 18:25:03.017252 15959 net.cpp:411] pool3 -> pool3
I0703 18:25:03.017294 15959 net.cpp:150] Setting up pool3
I0703 18:25:03.017300 15959 net.cpp:157] Top shape: 1 256 28 28 (200704)
I0703 18:25:03.017302 15959 net.cpp:165] Memory required for data: 101957632
I0703 18:25:03.017305 15959 layer_factory.hpp:77] Creating layer conv4_1
I0703 18:25:03.017312 15959 net.cpp:106] Creating Layer conv4_1
I0703 18:25:03.017315 15959 net.cpp:454] conv4_1 <- pool3
I0703 18:25:03.017321 15959 net.cpp:411] conv4_1 -> conv4_1
I0703 18:25:03.021922 15959 net.cpp:150] Setting up conv4_1
I0703 18:25:03.021934 15959 net.cpp:157] Top shape: 1 512 28 28 (401408)
I0703 18:25:03.021937 15959 net.cpp:165] Memory required for data: 103563264
I0703 18:25:03.021944 15959 layer_factory.hpp:77] Creating layer relu4_1
I0703 18:25:03.021952 15959 net.cpp:106] Creating Layer relu4_1
I0703 18:25:03.021956 15959 net.cpp:454] relu4_1 <- conv4_1
I0703 18:25:03.021960 15959 net.cpp:397] relu4_1 -> conv4_1 (in-place)
I0703 18:25:03.022135 15959 net.cpp:150] Setting up relu4_1
I0703 18:25:03.022142 15959 net.cpp:157] Top shape: 1 512 28 28 (401408)
I0703 18:25:03.022145 15959 net.cpp:165] Memory required for data: 105168896
I0703 18:25:03.022150 15959 layer_factory.hpp:77] Creating layer conv4_2
I0703 18:25:03.022157 15959 net.cpp:106] Creating Layer conv4_2
I0703 18:25:03.022161 15959 net.cpp:454] conv4_2 <- conv4_1
I0703 18:25:03.022167 15959 net.cpp:411] conv4_2 -> conv4_2
I0703 18:25:03.028878 15959 net.cpp:150] Setting up conv4_2
I0703 18:25:03.028890 15959 net.cpp:157] Top shape: 1 512 28 28 (401408)
I0703 18:25:03.028894 15959 net.cpp:165] Memory required for data: 106774528
I0703 18:25:03.028905 15959 layer_factory.hpp:77] Creating layer relu4_2
I0703 18:25:03.028918 15959 net.cpp:106] Creating Layer relu4_2
I0703 18:25:03.028923 15959 net.cpp:454] relu4_2 <- conv4_2
I0703 18:25:03.028930 15959 net.cpp:397] relu4_2 -> conv4_2 (in-place)
I0703 18:25:03.029258 15959 net.cpp:150] Setting up relu4_2
I0703 18:25:03.029268 15959 net.cpp:157] Top shape: 1 512 28 28 (401408)
I0703 18:25:03.029271 15959 net.cpp:165] Memory required for data: 108380160
I0703 18:25:03.029274 15959 layer_factory.hpp:77] Creating layer conv4_3
I0703 18:25:03.029284 15959 net.cpp:106] Creating Layer conv4_3
I0703 18:25:03.029287 15959 net.cpp:454] conv4_3 <- conv4_2
I0703 18:25:03.029292 15959 net.cpp:411] conv4_3 -> conv4_3
I0703 18:25:03.035851 15959 net.cpp:150] Setting up conv4_3
I0703 18:25:03.035863 15959 net.cpp:157] Top shape: 1 512 28 28 (401408)
I0703 18:25:03.035867 15959 net.cpp:165] Memory required for data: 109985792
I0703 18:25:03.035874 15959 layer_factory.hpp:77] Creating layer relu4_3
I0703 18:25:03.035881 15959 net.cpp:106] Creating Layer relu4_3
I0703 18:25:03.035884 15959 net.cpp:454] relu4_3 <- conv4_3
I0703 18:25:03.035889 15959 net.cpp:397] relu4_3 -> conv4_3 (in-place)
I0703 18:25:03.036216 15959 net.cpp:150] Setting up relu4_3
I0703 18:25:03.036226 15959 net.cpp:157] Top shape: 1 512 28 28 (401408)
I0703 18:25:03.036229 15959 net.cpp:165] Memory required for data: 111591424
I0703 18:25:03.036233 15959 layer_factory.hpp:77] Creating layer pool4
I0703 18:25:03.036242 15959 net.cpp:106] Creating Layer pool4
I0703 18:25:03.036244 15959 net.cpp:454] pool4 <- conv4_3
I0703 18:25:03.036250 15959 net.cpp:411] pool4 -> pool4
I0703 18:25:03.036293 15959 net.cpp:150] Setting up pool4
I0703 18:25:03.036298 15959 net.cpp:157] Top shape: 1 512 14 14 (100352)
I0703 18:25:03.036300 15959 net.cpp:165] Memory required for data: 111992832
I0703 18:25:03.036303 15959 layer_factory.hpp:77] Creating layer conv5_1
I0703 18:25:03.036311 15959 net.cpp:106] Creating Layer conv5_1
I0703 18:25:03.036314 15959 net.cpp:454] conv5_1 <- pool4
I0703 18:25:03.036319 15959 net.cpp:411] conv5_1 -> conv5_1
I0703 18:25:03.042891 15959 net.cpp:150] Setting up conv5_1
I0703 18:25:03.042902 15959 net.cpp:157] Top shape: 1 512 14 14 (100352)
I0703 18:25:03.042906 15959 net.cpp:165] Memory required for data: 112394240
I0703 18:25:03.042913 15959 layer_factory.hpp:77] Creating layer relu5_1
I0703 18:25:03.042919 15959 net.cpp:106] Creating Layer relu5_1
I0703 18:25:03.042923 15959 net.cpp:454] relu5_1 <- conv5_1
I0703 18:25:03.042930 15959 net.cpp:397] relu5_1 -> conv5_1 (in-place)
I0703 18:25:03.043112 15959 net.cpp:150] Setting up relu5_1
I0703 18:25:03.043119 15959 net.cpp:157] Top shape: 1 512 14 14 (100352)
I0703 18:25:03.043123 15959 net.cpp:165] Memory required for data: 112795648
I0703 18:25:03.043125 15959 layer_factory.hpp:77] Creating layer conv5_2
I0703 18:25:03.043133 15959 net.cpp:106] Creating Layer conv5_2
I0703 18:25:03.043138 15959 net.cpp:454] conv5_2 <- conv5_1
I0703 18:25:03.043143 15959 net.cpp:411] conv5_2 -> conv5_2
I0703 18:25:03.049720 15959 net.cpp:150] Setting up conv5_2
I0703 18:25:03.049732 15959 net.cpp:157] Top shape: 1 512 14 14 (100352)
I0703 18:25:03.049736 15959 net.cpp:165] Memory required for data: 113197056
I0703 18:25:03.049742 15959 layer_factory.hpp:77] Creating layer relu5_2
I0703 18:25:03.049748 15959 net.cpp:106] Creating Layer relu5_2
I0703 18:25:03.049751 15959 net.cpp:454] relu5_2 <- conv5_2
I0703 18:25:03.049759 15959 net.cpp:397] relu5_2 -> conv5_2 (in-place)
I0703 18:25:03.050096 15959 net.cpp:150] Setting up relu5_2
I0703 18:25:03.050104 15959 net.cpp:157] Top shape: 1 512 14 14 (100352)
I0703 18:25:03.050107 15959 net.cpp:165] Memory required for data: 113598464
I0703 18:25:03.050112 15959 layer_factory.hpp:77] Creating layer conv5_3
I0703 18:25:03.050119 15959 net.cpp:106] Creating Layer conv5_3
I0703 18:25:03.050123 15959 net.cpp:454] conv5_3 <- conv5_2
I0703 18:25:03.050128 15959 net.cpp:411] conv5_3 -> conv5_3
I0703 18:25:03.056727 15959 net.cpp:150] Setting up conv5_3
I0703 18:25:03.056741 15959 net.cpp:157] Top shape: 1 512 14 14 (100352)
I0703 18:25:03.056749 15959 net.cpp:165] Memory required for data: 113999872
I0703 18:25:03.056756 15959 layer_factory.hpp:77] Creating layer relu5_3
I0703 18:25:03.056762 15959 net.cpp:106] Creating Layer relu5_3
I0703 18:25:03.056766 15959 net.cpp:454] relu5_3 <- conv5_3
I0703 18:25:03.056771 15959 net.cpp:397] relu5_3 -> conv5_3 (in-place)
I0703 18:25:03.057107 15959 net.cpp:150] Setting up relu5_3
I0703 18:25:03.057116 15959 net.cpp:157] Top shape: 1 512 14 14 (100352)
I0703 18:25:03.057119 15959 net.cpp:165] Memory required for data: 114401280
I0703 18:25:03.057123 15959 layer_factory.hpp:77] Creating layer conv5_3_relu5_3_0_split
I0703 18:25:03.057135 15959 net.cpp:106] Creating Layer conv5_3_relu5_3_0_split
I0703 18:25:03.057139 15959 net.cpp:454] conv5_3_relu5_3_0_split <- conv5_3
I0703 18:25:03.057144 15959 net.cpp:411] conv5_3_relu5_3_0_split -> conv5_3_relu5_3_0_split_0
I0703 18:25:03.057153 15959 net.cpp:411] conv5_3_relu5_3_0_split -> conv5_3_relu5_3_0_split_1
I0703 18:25:03.057196 15959 net.cpp:150] Setting up conv5_3_relu5_3_0_split
I0703 18:25:03.057202 15959 net.cpp:157] Top shape: 1 512 14 14 (100352)
I0703 18:25:03.057206 15959 net.cpp:157] Top shape: 1 512 14 14 (100352)
I0703 18:25:03.057209 15959 net.cpp:165] Memory required for data: 115204096
I0703 18:25:03.057211 15959 layer_factory.hpp:77] Creating layer rpn_conv/3x3
I0703 18:25:03.057219 15959 net.cpp:106] Creating Layer rpn_conv/3x3
I0703 18:25:03.057224 15959 net.cpp:454] rpn_conv/3x3 <- conv5_3_relu5_3_0_split_0
I0703 18:25:03.057229 15959 net.cpp:411] rpn_conv/3x3 -> rpn/output
I0703 18:25:03.064172 15959 net.cpp:150] Setting up rpn_conv/3x3
I0703 18:25:03.064187 15959 net.cpp:157] Top shape: 1 512 14 14 (100352)
I0703 18:25:03.064189 15959 net.cpp:165] Memory required for data: 115605504
I0703 18:25:03.064195 15959 layer_factory.hpp:77] Creating layer rpn_relu/3x3
I0703 18:25:03.064208 15959 net.cpp:106] Creating Layer rpn_relu/3x3
I0703 18:25:03.064211 15959 net.cpp:454] rpn_relu/3x3 <- rpn/output
I0703 18:25:03.064216 15959 net.cpp:397] rpn_relu/3x3 -> rpn/output (in-place)
I0703 18:25:03.064398 15959 net.cpp:150] Setting up rpn_relu/3x3
I0703 18:25:03.064404 15959 net.cpp:157] Top shape: 1 512 14 14 (100352)
I0703 18:25:03.064407 15959 net.cpp:165] Memory required for data: 116006912
I0703 18:25:03.064410 15959 layer_factory.hpp:77] Creating layer rpn/output_rpn_relu/3x3_0_split
I0703 18:25:03.064415 15959 net.cpp:106] Creating Layer rpn/output_rpn_relu/3x3_0_split
I0703 18:25:03.064419 15959 net.cpp:454] rpn/output_rpn_relu/3x3_0_split <- rpn/output
I0703 18:25:03.064424 15959 net.cpp:411] rpn/output_rpn_relu/3x3_0_split -> rpn/output_rpn_relu/3x3_0_split_0
I0703 18:25:03.064430 15959 net.cpp:411] rpn/output_rpn_relu/3x3_0_split -> rpn/output_rpn_relu/3x3_0_split_1
I0703 18:25:03.064471 15959 net.cpp:150] Setting up rpn/output_rpn_relu/3x3_0_split
I0703 18:25:03.064476 15959 net.cpp:157] Top shape: 1 512 14 14 (100352)
I0703 18:25:03.064479 15959 net.cpp:157] Top shape: 1 512 14 14 (100352)
I0703 18:25:03.064482 15959 net.cpp:165] Memory required for data: 116809728
I0703 18:25:03.064486 15959 layer_factory.hpp:77] Creating layer rpn_cls_score
I0703 18:25:03.064496 15959 net.cpp:106] Creating Layer rpn_cls_score
I0703 18:25:03.064498 15959 net.cpp:454] rpn_cls_score <- rpn/output_rpn_relu/3x3_0_split_0
I0703 18:25:03.064503 15959 net.cpp:411] rpn_cls_score -> rpn_cls_score
I0703 18:25:03.065678 15959 net.cpp:150] Setting up rpn_cls_score
I0703 18:25:03.065690 15959 net.cpp:157] Top shape: 1 18 14 14 (3528)
I0703 18:25:03.065693 15959 net.cpp:165] Memory required for data: 116823840
I0703 18:25:03.065701 15959 layer_factory.hpp:77] Creating layer rpn_bbox_pred
I0703 18:25:03.065709 15959 net.cpp:106] Creating Layer rpn_bbox_pred
I0703 18:25:03.065713 15959 net.cpp:454] rpn_bbox_pred <- rpn/output_rpn_relu/3x3_0_split_1
I0703 18:25:03.065721 15959 net.cpp:411] rpn_bbox_pred -> rpn_bbox_pred
I0703 18:25:03.066840 15959 net.cpp:150] Setting up rpn_bbox_pred
I0703 18:25:03.066851 15959 net.cpp:157] Top shape: 1 36 14 14 (7056)
I0703 18:25:03.066857 15959 net.cpp:165] Memory required for data: 116852064
I0703 18:25:03.066864 15959 layer_factory.hpp:77] Creating layer rpn_cls_score_reshape
I0703 18:25:03.066875 15959 net.cpp:106] Creating Layer rpn_cls_score_reshape
I0703 18:25:03.066879 15959 net.cpp:454] rpn_cls_score_reshape <- rpn_cls_score
I0703 18:25:03.066884 15959 net.cpp:411] rpn_cls_score_reshape -> rpn_cls_score_reshape
I0703 18:25:03.066918 15959 net.cpp:150] Setting up rpn_cls_score_reshape
I0703 18:25:03.066925 15959 net.cpp:157] Top shape: 1 2 126 14 (3528)
I0703 18:25:03.066927 15959 net.cpp:165] Memory required for data: 116866176
I0703 18:25:03.066931 15959 layer_factory.hpp:77] Creating layer rpn_cls_prob
I0703 18:25:03.066936 15959 net.cpp:106] Creating Layer rpn_cls_prob
I0703 18:25:03.066938 15959 net.cpp:454] rpn_cls_prob <- rpn_cls_score_reshape
I0703 18:25:03.066946 15959 net.cpp:411] rpn_cls_prob -> rpn_cls_prob
I0703 18:25:03.067176 15959 net.cpp:150] Setting up rpn_cls_prob
I0703 18:25:03.067183 15959 net.cpp:157] Top shape: 1 2 126 14 (3528)
I0703 18:25:03.067186 15959 net.cpp:165] Memory required for data: 116880288
I0703 18:25:03.067189 15959 layer_factory.hpp:77] Creating layer rpn_cls_prob_reshape
I0703 18:25:03.067194 15959 net.cpp:106] Creating Layer rpn_cls_prob_reshape
I0703 18:25:03.067198 15959 net.cpp:454] rpn_cls_prob_reshape <- rpn_cls_prob
I0703 18:25:03.067203 15959 net.cpp:411] rpn_cls_prob_reshape -> rpn_cls_prob_reshape
I0703 18:25:03.067226 15959 net.cpp:150] Setting up rpn_cls_prob_reshape
I0703 18:25:03.067231 15959 net.cpp:157] Top shape: 1 18 14 14 (3528)
I0703 18:25:03.067234 15959 net.cpp:165] Memory required for data: 116894400
I0703 18:25:03.067237 15959 layer_factory.hpp:77] Creating layer proposal
I0703 18:25:03.124807 15959 net.cpp:106] Creating Layer proposal
I0703 18:25:03.124835 15959 net.cpp:454] proposal <- rpn_cls_prob_reshape
I0703 18:25:03.124841 15959 net.cpp:454] proposal <- rpn_bbox_pred
I0703 18:25:03.124846 15959 net.cpp:454] proposal <- im_info
I0703 18:25:03.124852 15959 net.cpp:411] proposal -> rois
I0703 18:25:03.125653 15959 net.cpp:150] Setting up proposal
I0703 18:25:03.125669 15959 net.cpp:157] Top shape: 1 5 (5)
I0703 18:25:03.125671 15959 net.cpp:165] Memory required for data: 116894420
I0703 18:25:03.125676 15959 layer_factory.hpp:77] Creating layer roi_pool5
I0703 18:25:03.125686 15959 net.cpp:106] Creating Layer roi_pool5
I0703 18:25:03.125691 15959 net.cpp:454] roi_pool5 <- conv5_3_relu5_3_0_split_1
I0703 18:25:03.125696 15959 net.cpp:454] roi_pool5 <- rois
I0703 18:25:03.125701 15959 net.cpp:411] roi_pool5 -> pool5
I0703 18:25:03.125711 15959 roi_pooling_layer.cpp:30] Spatial scale: 0.0625
I0703 18:25:03.125767 15959 net.cpp:150] Setting up roi_pool5
I0703 18:25:03.125773 15959 net.cpp:157] Top shape: 1 512 7 7 (25088)
I0703 18:25:03.125777 15959 net.cpp:165] Memory required for data: 116994772
I0703 18:25:03.125784 15959 layer_factory.hpp:77] Creating layer fc6
I0703 18:25:03.125810 15959 net.cpp:106] Creating Layer fc6
I0703 18:25:03.125814 15959 net.cpp:454] fc6 <- pool5
I0703 18:25:03.125820 15959 net.cpp:411] fc6 -> fc6
I0703 18:25:03.361886 15959 net.cpp:150] Setting up fc6
I0703 18:25:03.361927 15959 net.cpp:157] Top shape: 1 4096 (4096)
I0703 18:25:03.361930 15959 net.cpp:165] Memory required for data: 117011156
I0703 18:25:03.361953 15959 layer_factory.hpp:77] Creating layer relu6
I0703 18:25:03.361963 15959 net.cpp:106] Creating Layer relu6
I0703 18:25:03.361968 15959 net.cpp:454] relu6 <- fc6
I0703 18:25:03.361974 15959 net.cpp:397] relu6 -> fc6 (in-place)
I0703 18:25:03.362469 15959 net.cpp:150] Setting up relu6
I0703 18:25:03.362480 15959 net.cpp:157] Top shape: 1 4096 (4096)
I0703 18:25:03.362484 15959 net.cpp:165] Memory required for data: 117027540
I0703 18:25:03.362488 15959 layer_factory.hpp:77] Creating layer fc7
I0703 18:25:03.362496 15959 net.cpp:106] Creating Layer fc7
I0703 18:25:03.362500 15959 net.cpp:454] fc7 <- fc6
I0703 18:25:03.362505 15959 net.cpp:411] fc7 -> fc7
I0703 18:25:03.401501 15959 net.cpp:150] Setting up fc7
I0703 18:25:03.401545 15959 net.cpp:157] Top shape: 1 4096 (4096)
I0703 18:25:03.401548 15959 net.cpp:165] Memory required for data: 117043924
I0703 18:25:03.401561 15959 layer_factory.hpp:77] Creating layer relu7
I0703 18:25:03.401571 15959 net.cpp:106] Creating Layer relu7
I0703 18:25:03.401576 15959 net.cpp:454] relu7 <- fc7
I0703 18:25:03.401582 15959 net.cpp:397] relu7 -> fc7 (in-place)
I0703 18:25:03.402109 15959 net.cpp:150] Setting up relu7
I0703 18:25:03.402120 15959 net.cpp:157] Top shape: 1 4096 (4096)
I0703 18:25:03.402123 15959 net.cpp:165] Memory required for data: 117060308
I0703 18:25:03.402127 15959 layer_factory.hpp:77] Creating layer fc7_relu7_0_split
I0703 18:25:03.402133 15959 net.cpp:106] Creating Layer fc7_relu7_0_split
I0703 18:25:03.402137 15959 net.cpp:454] fc7_relu7_0_split <- fc7
I0703 18:25:03.402144 15959 net.cpp:411] fc7_relu7_0_split -> fc7_relu7_0_split_0
I0703 18:25:03.402151 15959 net.cpp:411] fc7_relu7_0_split -> fc7_relu7_0_split_1
I0703 18:25:03.402195 15959 net.cpp:150] Setting up fc7_relu7_0_split
I0703 18:25:03.402200 15959 net.cpp:157] Top shape: 1 4096 (4096)
I0703 18:25:03.402204 15959 net.cpp:157] Top shape: 1 4096 (4096)
I0703 18:25:03.402207 15959 net.cpp:165] Memory required for data: 117093076
I0703 18:25:03.402210 15959 layer_factory.hpp:77] Creating layer cls_score
I0703 18:25:03.402217 15959 net.cpp:106] Creating Layer cls_score
I0703 18:25:03.402220 15959 net.cpp:454] cls_score <- fc7_relu7_0_split_0
I0703 18:25:03.402227 15959 net.cpp:411] cls_score -> cls_score
I0703 18:25:03.403017 15959 net.cpp:150] Setting up cls_score
I0703 18:25:03.403028 15959 net.cpp:157] Top shape: 1 21 (21)
I0703 18:25:03.403030 15959 net.cpp:165] Memory required for data: 117093160
I0703 18:25:03.403038 15959 layer_factory.hpp:77] Creating layer bbox_pred
I0703 18:25:03.403043 15959 net.cpp:106] Creating Layer bbox_pred
I0703 18:25:03.403048 15959 net.cpp:454] bbox_pred <- fc7_relu7_0_split_1
I0703 18:25:03.403053 15959 net.cpp:411] bbox_pred -> bbox_pred
I0703 18:25:03.404137 15959 net.cpp:150] Setting up bbox_pred
I0703 18:25:03.404146 15959 net.cpp:157] Top shape: 1 84 (84)
I0703 18:25:03.404150 15959 net.cpp:165] Memory required for data: 117093496
I0703 18:25:03.404156 15959 layer_factory.hpp:77] Creating layer cls_prob
I0703 18:25:03.404162 15959 net.cpp:106] Creating Layer cls_prob
I0703 18:25:03.404165 15959 net.cpp:454] cls_prob <- cls_score
I0703 18:25:03.404170 15959 net.cpp:411] cls_prob -> cls_prob
I0703 18:25:03.404408 15959 net.cpp:150] Setting up cls_prob
I0703 18:25:03.404415 15959 net.cpp:157] Top shape: 1 21 (21)
I0703 18:25:03.404418 15959 net.cpp:165] Memory required for data: 117093580
I0703 18:25:03.404422 15959 net.cpp:228] cls_prob does not need backward computation.
I0703 18:25:03.404425 15959 net.cpp:228] bbox_pred does not need backward computation.
I0703 18:25:03.404429 15959 net.cpp:228] cls_score does not need backward computation.
I0703 18:25:03.404433 15959 net.cpp:228] fc7_relu7_0_split does not need backward computation.
…
