…
all to matplotlib.use() has no effect
because the backend has already been chosen;
matplotlib.use() must be called *before* pylab, matplotlib.pyplot,
or matplotlib.backends is imported for the first time.

  warnings.warn(_use_error_msg)
WARNING: Logging before InitGoogleLogging() is written to STDERR
I0630 16:03:55.789996 121091 net.cpp:49] Initializing net from parameters: 
name: "VGG_ILSVRC_16_layers"
input: "data"
input: "im_info"
state {
  phase: TEST
}
input_shape {
  dim: 1
  dim: 3
  dim: 224
  dim: 224
}
input_shape {
  dim: 1
  dim: 3
}
layer {
  name: "conv1_1"
  type: "Convolution"
  bottom: "data"
  top: "conv1_1"
  convolution_param {
    num_output: 64
    pad: 1
    kernel_size: 3
  }
}
layer {
  name: "relu1_1"
  type: "ReLU"
  bottom: "conv1_1"
  top: "conv1_1"
}
layer {
  name: "conv1_2"
  type: "Convolution"
  bottom: "conv1_1"
  top: "conv1_2"
  convolution_param {
    num_output: 64
    pad: 1
    kernel_size: 3
  }
}
layer {
  name: "relu1_2"
  type: "ReLU"
  bottom: "conv1_2"
  top: "conv1_2"
}
layer {
  name: "pool1"
  type: "Pooling"
  bottom: "conv1_2"
  top: "pool1"
  pooling_param {
    pool: MAX
    kernel_size: 2
    stride: 2
  }
}
layer {
  name: "conv2_1"
  type: "Convolution"
  bottom: "pool1"
  top: "conv2_1"
  convolution_param {
    num_output: 128
    pad: 1
    kernel_size: 3
  }
}
layer {
  name: "relu2_1"
  type: "ReLU"
  bottom: "conv2_1"
  top: "conv2_1"
}
layer {
  name: "conv2_2"
  type: "Convolution"
  bottom: "conv2_1"
  top: "conv2_2"
  convolution_param {
    num_output: 128
    pad: 1
    kernel_size: 3
  }
}
layer {
  name: "relu2_2"
  type: "ReLU"
  bottom: "conv2_2"
  top: "conv2_2"
}
layer {
  name: "pool2"
  type: "Pooling"
  bottom: "conv2_2"
  top: "pool2"
  pooling_param {
    pool: MAX
    kernel_size: 2
    stride: 2
  }
}
layer {
  name: "conv3_1"
  type: "Convolution"
  bottom: "pool2"
  top: "conv3_1"
  convolution_param {
    num_output: 256
    pad: 1
    kernel_size: 3
  }
}
layer {
  name: "relu3_1"
  type: "ReLU"
  bottom: "conv3_1"
  top: "conv3_1"
}
layer {
  name: "conv3_2"
  type: "Convolution"
  bottom: "conv3_1"
  top: "conv3_2"
  convolution_param {
    num_output: 256
    pad: 1
    kernel_size: 3
  }
}
layer {
  name: "relu3_2"
  type: "ReLU"
  bottom: "conv3_2"
  top: "conv3_2"
}
layer {
  name: "conv3_3"
  type: "Convolution"
  bottom: "conv3_2"
  top: "conv3_3"
  convolution_param {
    num_output: 256
    pad: 1
    kernel_size: 3
  }
}
layer {
  name: "relu3_3"
  type: "ReLU"
  bottom: "conv3_3"
  top: "conv3_3"
}
layer {
  name: "pool3"
  type: "Pooling"
  bottom: "conv3_3"
  top: "pool3"
  pooling_param {
    pool: MAX
    kernel_size: 2
    stride: 2
  }
}
layer {
  name: "conv4_1"
  type: "Convolution"
  bottom: "pool3"
  top: "conv4_1"
  convolution_param {
    num_output: 512
    pad: 1
    kernel_size: 3
  }
}
layer {
  name: "relu4_1"
  type: "ReLU"
  bottom: "conv4_1"
  top: "conv4_1"
}
layer {
  name: "conv4_2"
  type: "Convolution"
  bottom: "conv4_1"
  top: "conv4_2"
  convolution_param {
    num_output: 512
    pad: 1
    kernel_size: 3
  }
}
layer {
  name: "relu4_2"
  type: "ReLU"
  bottom: "conv4_2"
  top: "conv4_2"
}
layer {
  name: "conv4_3"
  type: "Convolution"
  bottom: "conv4_2"
  top: "conv4_3"
  convolution_param {
    num_output: 512
    pad: 1
    kernel_size: 3
  }
}
layer {
  name: "relu4_3"
  type: "ReLU"
  bottom: "conv4_3"
  top: "conv4_3"
}
layer {
  name: "pool4"
  type: "Pooling"
  bottom: "conv4_3"
  top: "pool4"
  pooling_param {
    pool: MAX
    kernel_size: 2
    stride: 2
  }
}
layer {
  name: "conv5_1"
  type: "Convolution"
  bottom: "pool4"
  top: "conv5_1"
  convolution_param {
    num_output: 512
    pad: 1
    kernel_size: 3
  }
}
layer {
  name: "relu5_1"
  type: "ReLU"
  bottom: "conv5_1"
  top: "conv5_1"
}
layer {
  name: "conv5_2"
  type: "Convolution"
  bottom: "conv5_1"
  top: "conv5_2"
  convolution_param {
    num_output: 512
    pad: 1
    kernel_size: 3
  }
}
layer {
  name: "relu5_2"
  type: "ReLU"
  bottom: "conv5_2"
  top: "conv5_2"
}
layer {
  name: "conv5_3"
  type: "Convolution"
  bottom: "conv5_2"
  top: "conv5_3"
  convolution_param {
    num_output: 512
    pad: 1
    kernel_size: 3
  }
}
layer {
  name: "relu5_3"
  type: "ReLU"
  bottom: "conv5_3"
  top: "conv5_3"
}
layer {
  name: "rpn_conv/3x3"
  type: "Convolution"
  bottom: "conv5_3"
  top: "rpn/output"
  convolution_param {
    num_output: 512
    pad: 1
    kernel_size: 3
    stride: 1
  }
}
layer {
  name: "rpn_relu/3x3"
  type: "ReLU"
  bottom: "rpn/output"
  top: "rpn/output"
}
layer {
  name: "rpn_cls_score"
  type: "Convolution"
  bottom: "rpn/output"
  top: "rpn_cls_score"
  convolution_param {
    num_output: 18
    pad: 0
    kernel_size: 1
    stride: 1
  }
}
layer {
  name: "rpn_bbox_pred"
  type: "Convolution"
  bottom: "rpn/output"
  top: "rpn_bbox_pred"
  convolution_param {
    num_output: 36
    pad: 0
    kernel_size: 1
    stride: 1
  }
}
layer {
  name: "rpn_cls_score_reshape"
  type: "Reshape"
  bottom: "rpn_cls_score"
  top: "rpn_cls_score_reshape"
  reshape_param {
    shape {
      dim: 0
      dim: 2
      dim: -1
      dim: 0
    }
  }
}
layer {
  name: "rpn_cls_prob"
  type: "Softmax"
  bottom: "rpn_cls_score_reshape"
  top: "rpn_cls_prob"
}
layer {
  name: "rpn_cls_prob_reshape"
  type: "Reshape"
  bottom: "rpn_cls_prob"
  top: "rpn_cls_prob_reshape"
  reshape_param {
    shape {
      dim: 0
      dim: 18
      dim: -1
      dim: 0
    }
  }
}
layer {
  name: "proposal"
  type: "Python"
  bottom: "rpn_cls_prob_reshape"
  bottom: "rpn_bbox_pred"
  bottom: "im_info"
  top: "rois"
  python_param {
    module: "rpn.proposal_layer"
    layer: "ProposalLayer"
    param_str: "\'feat_stride\': 16"
  }
}
layer {
  name: "roi_pool5"
  type: "ROIPooling"
  bottom: "conv5_3"
  bottom: "rois"
  top: "pool5"
  roi_pooling_param {
    pooled_h: 7
    pooled_w: 7
    spatial_scale: 0.0625
  }
}
layer {
  name: "fc6"
  type: "InnerProduct"
  bottom: "pool5"
  top: "fc6"
  inner_product_param {
    num_output: 4096
  }
}
layer {
  name: "relu6"
  type: "ReLU"
  bottom: "fc6"
  top: "fc6"
}
layer {
  name: "fc7"
  type: "InnerProduct"
  bottom: "fc6"
  top: "fc7"
  inner_product_param {
    num_output: 4096
  }
}
layer {
  name: "relu7"
  type: "ReLU"
  bottom: "fc7"
  top: "fc7"
}
layer {
  name: "cls_score"
  type: "InnerProduct"
  bottom: "fc7"
  top: "cls_score"
  inner_product_param {
    num_output: 21
  }
}
layer {
  name: "bbox_pred"
  type: "InnerProduct"
  bottom: "fc7"
  top: "bbox_pred"
  inner_product_param {
    num_output: 84
  }
}
layer {
  name: "cls_prob"
  type: "Softmax"
  bottom: "cls_score"
  top: "cls_prob"
}
I0630 16:03:55.790206 121091 net.cpp:413] Input 0 -> data
I0630 16:03:56.285681 121091 net.cpp:413] Input 1 -> im_info
I0630 16:03:56.285749 121091 layer_factory.hpp:77] Creating layer conv1_1
I0630 16:03:56.285774 121091 net.cpp:106] Creating Layer conv1_1
I0630 16:03:56.285780 121091 net.cpp:454] conv1_1 <- data
I0630 16:03:56.285794 121091 net.cpp:411] conv1_1 -> conv1_1
I0630 16:03:56.559073 121091 net.cpp:150] Setting up conv1_1
I0630 16:03:56.559130 121091 net.cpp:157] Top shape: 1 64 224 224 (3211264)
I0630 16:03:56.559134 121091 net.cpp:165] Memory required for data: 12845056
I0630 16:03:56.559159 121091 layer_factory.hpp:77] Creating layer relu1_1
I0630 16:03:56.559181 121091 net.cpp:106] Creating Layer relu1_1
I0630 16:03:56.559188 121091 net.cpp:454] relu1_1 <- conv1_1
I0630 16:03:56.559195 121091 net.cpp:397] relu1_1 -> conv1_1 (in-place)
I0630 16:03:56.559522 121091 net.cpp:150] Setting up relu1_1
I0630 16:03:56.559532 121091 net.cpp:157] Top shape: 1 64 224 224 (3211264)
I0630 16:03:56.559536 121091 net.cpp:165] Memory required for data: 25690112
I0630 16:03:56.559540 121091 layer_factory.hpp:77] Creating layer conv1_2
I0630 16:03:56.559556 121091 net.cpp:106] Creating Layer conv1_2
I0630 16:03:56.559559 121091 net.cpp:454] conv1_2 <- conv1_1
I0630 16:03:56.559564 121091 net.cpp:411] conv1_2 -> conv1_2
I0630 16:03:56.560890 121091 net.cpp:150] Setting up conv1_2
I0630 16:03:56.560904 121091 net.cpp:157] Top shape: 1 64 224 224 (3211264)
I0630 16:03:56.560912 121091 net.cpp:165] Memory required for data: 38535168
I0630 16:03:56.560925 121091 layer_factory.hpp:77] Creating layer relu1_2
I0630 16:03:56.560931 121091 net.cpp:106] Creating Layer relu1_2
I0630 16:03:56.560935 121091 net.cpp:454] relu1_2 <- conv1_2
I0630 16:03:56.560940 121091 net.cpp:397] relu1_2 -> conv1_2 (in-place)
I0630 16:03:56.561131 121091 net.cpp:150] Setting up relu1_2
I0630 16:03:56.561137 121091 net.cpp:157] Top shape: 1 64 224 224 (3211264)
I0630 16:03:56.561141 121091 net.cpp:165] Memory required for data: 51380224
I0630 16:03:56.561146 121091 layer_factory.hpp:77] Creating layer pool1
I0630 16:03:56.561157 121091 net.cpp:106] Creating Layer pool1
I0630 16:03:56.561161 121091 net.cpp:454] pool1 <- conv1_2
I0630 16:03:56.561167 121091 net.cpp:411] pool1 -> pool1
I0630 16:03:56.561211 121091 net.cpp:150] Setting up pool1
I0630 16:03:56.561216 121091 net.cpp:157] Top shape: 1 64 112 112 (802816)
I0630 16:03:56.561219 121091 net.cpp:165] Memory required for data: 54591488
I0630 16:03:56.561223 121091 layer_factory.hpp:77] Creating layer conv2_1
I0630 16:03:56.561230 121091 net.cpp:106] Creating Layer conv2_1
I0630 16:03:56.561233 121091 net.cpp:454] conv2_1 <- pool1
I0630 16:03:56.561239 121091 net.cpp:411] conv2_1 -> conv2_1
I0630 16:03:56.563727 121091 net.cpp:150] Setting up conv2_1
I0630 16:03:56.563742 121091 net.cpp:157] Top shape: 1 128 112 112 (1605632)
I0630 16:03:56.563745 121091 net.cpp:165] Memory required for data: 61014016
I0630 16:03:56.563757 121091 layer_factory.hpp:77] Creating layer relu2_1
I0630 16:03:56.563771 121091 net.cpp:106] Creating Layer relu2_1
I0630 16:03:56.563773 121091 net.cpp:454] relu2_1 <- conv2_1
I0630 16:03:56.563778 121091 net.cpp:397] relu2_1 -> conv2_1 (in-place)
I0630 16:03:56.564247 121091 net.cpp:150] Setting up relu2_1
I0630 16:03:56.564257 121091 net.cpp:157] Top shape: 1 128 112 112 (1605632)
I0630 16:03:56.564261 121091 net.cpp:165] Memory required for data: 67436544
I0630 16:03:56.564265 121091 layer_factory.hpp:77] Creating layer conv2_2
I0630 16:03:56.564276 121091 net.cpp:106] Creating Layer conv2_2
I0630 16:03:56.564280 121091 net.cpp:454] conv2_2 <- conv2_1
I0630 16:03:56.564287 121091 net.cpp:411] conv2_2 -> conv2_2
I0630 16:03:56.565423 121091 net.cpp:150] Setting up conv2_2
I0630 16:03:56.565438 121091 net.cpp:157] Top shape: 1 128 112 112 (1605632)
I0630 16:03:56.565441 121091 net.cpp:165] Memory required for data: 73859072
I0630 16:03:56.565450 121091 layer_factory.hpp:77] Creating layer relu2_2
I0630 16:03:56.565462 121091 net.cpp:106] Creating Layer relu2_2
I0630 16:03:56.565466 121091 net.cpp:454] relu2_2 <- conv2_2
I0630 16:03:56.565472 121091 net.cpp:397] relu2_2 -> conv2_2 (in-place)
I0630 16:03:56.565825 121091 net.cpp:150] Setting up relu2_2
I0630 16:03:56.565835 121091 net.cpp:157] Top shape: 1 128 112 112 (1605632)
I0630 16:03:56.565838 121091 net.cpp:165] Memory required for data: 80281600
I0630 16:03:56.565842 121091 layer_factory.hpp:77] Creating layer pool2
I0630 16:03:56.565853 121091 net.cpp:106] Creating Layer pool2
I0630 16:03:56.565857 121091 net.cpp:454] pool2 <- conv2_2
I0630 16:03:56.565862 121091 net.cpp:411] pool2 -> pool2
I0630 16:03:56.565909 121091 net.cpp:150] Setting up pool2
I0630 16:03:56.565914 121091 net.cpp:157] Top shape: 1 128 56 56 (401408)
I0630 16:03:56.565917 121091 net.cpp:165] Memory required for data: 81887232
I0630 16:03:56.565920 121091 layer_factory.hpp:77] Creating layer conv3_1
I0630 16:03:56.565930 121091 net.cpp:106] Creating Layer conv3_1
I0630 16:03:56.565933 121091 net.cpp:454] conv3_1 <- pool2
I0630 16:03:56.565938 121091 net.cpp:411] conv3_1 -> conv3_1
I0630 16:03:56.567868 121091 net.cpp:150] Setting up conv3_1
I0630 16:03:56.567879 121091 net.cpp:157] Top shape: 1 256 56 56 (802816)
I0630 16:03:56.567883 121091 net.cpp:165] Memory required for data: 85098496
I0630 16:03:56.567894 121091 layer_factory.hpp:77] Creating layer relu3_1
I0630 16:03:56.567901 121091 net.cpp:106] Creating Layer relu3_1
I0630 16:03:56.567904 121091 net.cpp:454] relu3_1 <- conv3_1
I0630 16:03:56.567914 121091 net.cpp:397] relu3_1 -> conv3_1 (in-place)
I0630 16:03:56.568079 121091 net.cpp:150] Setting up relu3_1
I0630 16:03:56.568085 121091 net.cpp:157] Top shape: 1 256 56 56 (802816)
I0630 16:03:56.568089 121091 net.cpp:165] Memory required for data: 88309760
I0630 16:03:56.568091 121091 layer_factory.hpp:77] Creating layer conv3_2
I0630 16:03:56.568100 121091 net.cpp:106] Creating Layer conv3_2
I0630 16:03:56.568104 121091 net.cpp:454] conv3_2 <- conv3_1
I0630 16:03:56.568109 121091 net.cpp:411] conv3_2 -> conv3_2
I0630 16:03:56.570718 121091 net.cpp:150] Setting up conv3_2
I0630 16:03:56.570729 121091 net.cpp:157] Top shape: 1 256 56 56 (802816)
I0630 16:03:56.570731 121091 net.cpp:165] Memory required for data: 91521024
I0630 16:03:56.570739 121091 layer_factory.hpp:77] Creating layer relu3_2
I0630 16:03:56.570745 121091 net.cpp:106] Creating Layer relu3_2
I0630 16:03:56.570749 121091 net.cpp:454] relu3_2 <- conv3_2
I0630 16:03:56.570754 121091 net.cpp:397] relu3_2 -> conv3_2 (in-place)
I0630 16:03:56.571069 121091 net.cpp:150] Setting up relu3_2
I0630 16:03:56.571079 121091 net.cpp:157] Top shape: 1 256 56 56 (802816)
I0630 16:03:56.571081 121091 net.cpp:165] Memory required for data: 94732288
I0630 16:03:56.571084 121091 layer_factory.hpp:77] Creating layer conv3_3
I0630 16:03:56.571094 121091 net.cpp:106] Creating Layer conv3_3
I0630 16:03:56.571096 121091 net.cpp:454] conv3_3 <- conv3_2
I0630 16:03:56.571104 121091 net.cpp:411] conv3_3 -> conv3_3
I0630 16:03:56.573773 121091 net.cpp:150] Setting up conv3_3
I0630 16:03:56.573788 121091 net.cpp:157] Top shape: 1 256 56 56 (802816)
I0630 16:03:56.573791 121091 net.cpp:165] Memory required for data: 97943552
I0630 16:03:56.573797 121091 layer_factory.hpp:77] Creating layer relu3_3
I0630 16:03:56.573806 121091 net.cpp:106] Creating Layer relu3_3
I0630 16:03:56.573808 121091 net.cpp:454] relu3_3 <- conv3_3
I0630 16:03:56.573812 121091 net.cpp:397] relu3_3 -> conv3_3 (in-place)
I0630 16:03:56.574120 121091 net.cpp:150] Setting up relu3_3
I0630 16:03:56.574136 121091 net.cpp:157] Top shape: 1 256 56 56 (802816)
I0630 16:03:56.574138 121091 net.cpp:165] Memory required for data: 101154816
I0630 16:03:56.574141 121091 layer_factory.hpp:77] Creating layer pool3
I0630 16:03:56.574149 121091 net.cpp:106] Creating Layer pool3
I0630 16:03:56.574151 121091 net.cpp:454] pool3 <- conv3_3
I0630 16:03:56.574158 121091 net.cpp:411] pool3 -> pool3
I0630 16:03:56.574198 121091 net.cpp:150] Setting up pool3
I0630 16:03:56.574203 121091 net.cpp:157] Top shape: 1 256 28 28 (200704)
I0630 16:03:56.574204 121091 net.cpp:165] Memory required for data: 101957632
I0630 16:03:56.574208 121091 layer_factory.hpp:77] Creating layer conv4_1
I0630 16:03:56.574215 121091 net.cpp:106] Creating Layer conv4_1
I0630 16:03:56.574218 121091 net.cpp:454] conv4_1 <- pool3
I0630 16:03:56.574224 121091 net.cpp:411] conv4_1 -> conv4_1
I0630 16:03:56.578893 121091 net.cpp:150] Setting up conv4_1
I0630 16:03:56.578904 121091 net.cpp:157] Top shape: 1 512 28 28 (401408)
I0630 16:03:56.578907 121091 net.cpp:165] Memory required for data: 103563264
I0630 16:03:56.578914 121091 layer_factory.hpp:77] Creating layer relu4_1
I0630 16:03:56.578919 121091 net.cpp:106] Creating Layer relu4_1
I0630 16:03:56.578924 121091 net.cpp:454] relu4_1 <- conv4_1
I0630 16:03:56.578929 121091 net.cpp:397] relu4_1 -> conv4_1 (in-place)
I0630 16:03:56.579109 121091 net.cpp:150] Setting up relu4_1
I0630 16:03:56.579115 121091 net.cpp:157] Top shape: 1 512 28 28 (401408)
I0630 16:03:56.579118 121091 net.cpp:165] Memory required for data: 105168896
I0630 16:03:56.579121 121091 layer_factory.hpp:77] Creating layer conv4_2
I0630 16:03:56.579129 121091 net.cpp:106] Creating Layer conv4_2
I0630 16:03:56.579133 121091 net.cpp:454] conv4_2 <- conv4_1
I0630 16:03:56.579138 121091 net.cpp:411] conv4_2 -> conv4_2
I0630 16:03:56.586805 121091 net.cpp:150] Setting up conv4_2
I0630 16:03:56.586836 121091 net.cpp:157] Top shape: 1 512 28 28 (401408)
I0630 16:03:56.586839 121091 net.cpp:165] Memory required for data: 106774528
I0630 16:03:56.586863 121091 layer_factory.hpp:77] Creating layer relu4_2
I0630 16:03:56.586876 121091 net.cpp:106] Creating Layer relu4_2
I0630 16:03:56.586880 121091 net.cpp:454] relu4_2 <- conv4_2
I0630 16:03:56.586887 121091 net.cpp:397] relu4_2 -> conv4_2 (in-place)
I0630 16:03:56.587240 121091 net.cpp:150] Setting up relu4_2
I0630 16:03:56.587250 121091 net.cpp:157] Top shape: 1 512 28 28 (401408)
I0630 16:03:56.587255 121091 net.cpp:165] Memory required for data: 108380160
I0630 16:03:56.587257 121091 layer_factory.hpp:77] Creating layer conv4_3
I0630 16:03:56.587270 121091 net.cpp:106] Creating Layer conv4_3
I0630 16:03:56.587273 121091 net.cpp:454] conv4_3 <- conv4_2
I0630 16:03:56.587278 121091 net.cpp:411] conv4_3 -> conv4_3
I0630 16:03:56.594450 121091 net.cpp:150] Setting up conv4_3
I0630 16:03:56.594465 121091 net.cpp:157] Top shape: 1 512 28 28 (401408)
I0630 16:03:56.594468 121091 net.cpp:165] Memory required for data: 109985792
I0630 16:03:56.594475 121091 layer_factory.hpp:77] Creating layer relu4_3
I0630 16:03:56.594483 121091 net.cpp:106] Creating Layer relu4_3
I0630 16:03:56.594487 121091 net.cpp:454] relu4_3 <- conv4_3
I0630 16:03:56.594492 121091 net.cpp:397] relu4_3 -> conv4_3 (in-place)
I0630 16:03:56.594830 121091 net.cpp:150] Setting up relu4_3
I0630 16:03:56.594840 121091 net.cpp:157] Top shape: 1 512 28 28 (401408)
I0630 16:03:56.594842 121091 net.cpp:165] Memory required for data: 111591424
I0630 16:03:56.594846 121091 layer_factory.hpp:77] Creating layer pool4
I0630 16:03:56.594854 121091 net.cpp:106] Creating Layer pool4
I0630 16:03:56.594857 121091 net.cpp:454] pool4 <- conv4_3
I0630 16:03:56.594862 121091 net.cpp:411] pool4 -> pool4
I0630 16:03:56.594903 121091 net.cpp:150] Setting up pool4
I0630 16:03:56.594908 121091 net.cpp:157] Top shape: 1 512 14 14 (100352)
I0630 16:03:56.594910 121091 net.cpp:165] Memory required for data: 111992832
I0630 16:03:56.594913 121091 layer_factory.hpp:77] Creating layer conv5_1
I0630 16:03:56.594923 121091 net.cpp:106] Creating Layer conv5_1
I0630 16:03:56.594925 121091 net.cpp:454] conv5_1 <- pool4
I0630 16:03:56.594929 121091 net.cpp:411] conv5_1 -> conv5_1
I0630 16:03:56.602222 121091 net.cpp:150] Setting up conv5_1
I0630 16:03:56.602244 121091 net.cpp:157] Top shape: 1 512 14 14 (100352)
I0630 16:03:56.602248 121091 net.cpp:165] Memory required for data: 112394240
I0630 16:03:56.602257 121091 layer_factory.hpp:77] Creating layer relu5_1
I0630 16:03:56.602263 121091 net.cpp:106] Creating Layer relu5_1
I0630 16:03:56.602267 121091 net.cpp:454] relu5_1 <- conv5_1
I0630 16:03:56.602272 121091 net.cpp:397] relu5_1 -> conv5_1 (in-place)
I0630 16:03:56.602469 121091 net.cpp:150] Setting up relu5_1
I0630 16:03:56.602478 121091 net.cpp:157] Top shape: 1 512 14 14 (100352)
I0630 16:03:56.602480 121091 net.cpp:165] Memory required for data: 112795648
I0630 16:03:56.602483 121091 layer_factory.hpp:77] Creating layer conv5_2
I0630 16:03:56.602494 121091 net.cpp:106] Creating Layer conv5_2
I0630 16:03:56.602496 121091 net.cpp:454] conv5_2 <- conv5_1
I0630 16:03:56.602501 121091 net.cpp:411] conv5_2 -> conv5_2
I0630 16:03:56.609763 121091 net.cpp:150] Setting up conv5_2
I0630 16:03:56.609776 121091 net.cpp:157] Top shape: 1 512 14 14 (100352)
I0630 16:03:56.609779 121091 net.cpp:165] Memory required for data: 113197056
I0630 16:03:56.609792 121091 layer_factory.hpp:77] Creating layer relu5_2
I0630 16:03:56.609802 121091 net.cpp:106] Creating Layer relu5_2
I0630 16:03:56.609807 121091 net.cpp:454] relu5_2 <- conv5_2
I0630 16:03:56.609814 121091 net.cpp:397] relu5_2 -> conv5_2 (in-place)
I0630 16:03:56.610167 121091 net.cpp:150] Setting up relu5_2
I0630 16:03:56.610177 121091 net.cpp:157] Top shape: 1 512 14 14 (100352)
I0630 16:03:56.610179 121091 net.cpp:165] Memory required for data: 113598464
I0630 16:03:56.610183 121091 layer_factory.hpp:77] Creating layer conv5_3
I0630 16:03:56.610193 121091 net.cpp:106] Creating Layer conv5_3
I0630 16:03:56.610198 121091 net.cpp:454] conv5_3 <- conv5_2
I0630 16:03:56.610203 121091 net.cpp:411] conv5_3 -> conv5_3
I0630 16:03:56.617343 121091 net.cpp:150] Setting up conv5_3
I0630 16:03:56.617358 121091 net.cpp:157] Top shape: 1 512 14 14 (100352)
I0630 16:03:56.617362 121091 net.cpp:165] Memory required for data: 113999872
I0630 16:03:56.617368 121091 layer_factory.hpp:77] Creating layer relu5_3
I0630 16:03:56.617375 121091 net.cpp:106] Creating Layer relu5_3
I0630 16:03:56.617379 121091 net.cpp:454] relu5_3 <- conv5_3
I0630 16:03:56.617386 121091 net.cpp:397] relu5_3 -> conv5_3 (in-place)
I0630 16:03:56.617729 121091 net.cpp:150] Setting up relu5_3
I0630 16:03:56.617739 121091 net.cpp:157] Top shape: 1 512 14 14 (100352)
I0630 16:03:56.617743 121091 net.cpp:165] Memory required for data: 114401280
I0630 16:03:56.617746 121091 layer_factory.hpp:77] Creating layer conv5_3_relu5_3_0_split
I0630 16:03:56.617761 121091 net.cpp:106] Creating Layer conv5_3_relu5_3_0_split
I0630 16:03:56.617764 121091 net.cpp:454] conv5_3_relu5_3_0_split <- conv5_3
I0630 16:03:56.617770 121091 net.cpp:411] conv5_3_relu5_3_0_split -> conv5_3_relu5_3_0_split_0
I0630 16:03:56.617776 121091 net.cpp:411] conv5_3_relu5_3_0_split -> conv5_3_relu5_3_0_split_1
I0630 16:03:56.617830 121091 net.cpp:150] Setting up conv5_3_relu5_3_0_split
I0630 16:03:56.617836 121091 net.cpp:157] Top shape: 1 512 14 14 (100352)
I0630 16:03:56.617841 121091 net.cpp:157] Top shape: 1 512 14 14 (100352)
I0630 16:03:56.617843 121091 net.cpp:165] Memory required for data: 115204096
I0630 16:03:56.617846 121091 layer_factory.hpp:77] Creating layer rpn_conv/3x3
I0630 16:03:56.617856 121091 net.cpp:106] Creating Layer rpn_conv/3x3
I0630 16:03:56.617858 121091 net.cpp:454] rpn_conv/3x3 <- conv5_3_relu5_3_0_split_0
I0630 16:03:56.617863 121091 net.cpp:411] rpn_conv/3x3 -> rpn/output
I0630 16:03:56.625293 121091 net.cpp:150] Setting up rpn_conv/3x3
I0630 16:03:56.625308 121091 net.cpp:157] Top shape: 1 512 14 14 (100352)
I0630 16:03:56.625311 121091 net.cpp:165] Memory required for data: 115605504
I0630 16:03:56.625319 121091 layer_factory.hpp:77] Creating layer rpn_relu/3x3
I0630 16:03:56.625334 121091 net.cpp:106] Creating Layer rpn_relu/3x3
I0630 16:03:56.625339 121091 net.cpp:454] rpn_relu/3x3 <- rpn/output
I0630 16:03:56.625344 121091 net.cpp:397] rpn_relu/3x3 -> rpn/output (in-place)
I0630 16:03:56.625540 121091 net.cpp:150] Setting up rpn_relu/3x3
I0630 16:03:56.625547 121091 net.cpp:157] Top shape: 1 512 14 14 (100352)
I0630 16:03:56.625550 121091 net.cpp:165] Memory required for data: 116006912
I0630 16:03:56.625555 121091 layer_factory.hpp:77] Creating layer rpn/output_rpn_relu/3x3_0_split
I0630 16:03:56.625560 121091 net.cpp:106] Creating Layer rpn/output_rpn_relu/3x3_0_split
I0630 16:03:56.625562 121091 net.cpp:454] rpn/output_rpn_relu/3x3_0_split <- rpn/output
I0630 16:03:56.625569 121091 net.cpp:411] rpn/output_rpn_relu/3x3_0_split -> rpn/output_rpn_relu/3x3_0_split_0
I0630 16:03:56.625576 121091 net.cpp:411] rpn/output_rpn_relu/3x3_0_split -> rpn/output_rpn_relu/3x3_0_split_1
I0630 16:03:56.625619 121091 net.cpp:150] Setting up rpn/output_rpn_relu/3x3_0_split
I0630 16:03:56.625627 121091 net.cpp:157] Top shape: 1 512 14 14 (100352)
I0630 16:03:56.625630 121091 net.cpp:157] Top shape: 1 512 14 14 (100352)
I0630 16:03:56.625633 121091 net.cpp:165] Memory required for data: 116809728
I0630 16:03:56.625636 121091 layer_factory.hpp:77] Creating layer rpn_cls_score
I0630 16:03:56.625643 121091 net.cpp:106] Creating Layer rpn_cls_score
I0630 16:03:56.625646 121091 net.cpp:454] rpn_cls_score <- rpn/output_rpn_relu/3x3_0_split_0
I0630 16:03:56.625653 121091 net.cpp:411] rpn_cls_score -> rpn_cls_score
I0630 16:03:56.626853 121091 net.cpp:150] Setting up rpn_cls_score
I0630 16:03:56.626865 121091 net.cpp:157] Top shape: 1 18 14 14 (3528)
I0630 16:03:56.626869 121091 net.cpp:165] Memory required for data: 116823840
I0630 16:03:56.626875 121091 layer_factory.hpp:77] Creating layer rpn_bbox_pred
I0630 16:03:56.626885 121091 net.cpp:106] Creating Layer rpn_bbox_pred
I0630 16:03:56.626889 121091 net.cpp:454] rpn_bbox_pred <- rpn/output_rpn_relu/3x3_0_split_1
I0630 16:03:56.626898 121091 net.cpp:411] rpn_bbox_pred -> rpn_bbox_pred
I0630 16:03:56.628092 121091 net.cpp:150] Setting up rpn_bbox_pred
I0630 16:03:56.628103 121091 net.cpp:157] Top shape: 1 36 14 14 (7056)
I0630 16:03:56.628105 121091 net.cpp:165] Memory required for data: 116852064
I0630 16:03:56.628113 121091 layer_factory.hpp:77] Creating layer rpn_cls_score_reshape
I0630 16:03:56.628124 121091 net.cpp:106] Creating Layer rpn_cls_score_reshape
I0630 16:03:56.628129 121091 net.cpp:454] rpn_cls_score_reshape <- rpn_cls_score
I0630 16:03:56.628137 121091 net.cpp:411] rpn_cls_score_reshape -> rpn_cls_score_reshape
I0630 16:03:56.628173 121091 net.cpp:150] Setting up rpn_cls_score_reshape
I0630 16:03:56.628180 121091 net.cpp:157] Top shape: 1 2 126 14 (3528)
I0630 16:03:56.628181 121091 net.cpp:165] Memory required for data: 116866176
I0630 16:03:56.628185 121091 layer_factory.hpp:77] Creating layer rpn_cls_prob
I0630 16:03:56.628195 121091 net.cpp:106] Creating Layer rpn_cls_prob
I0630 16:03:56.628197 121091 net.cpp:454] rpn_cls_prob <- rpn_cls_score_reshape
I0630 16:03:56.628202 121091 net.cpp:411] rpn_cls_prob -> rpn_cls_prob
I0630 16:03:56.628461 121091 net.cpp:150] Setting up rpn_cls_prob
I0630 16:03:56.628469 121091 net.cpp:157] Top shape: 1 2 126 14 (3528)
I0630 16:03:56.628473 121091 net.cpp:165] Memory required for data: 116880288
I0630 16:03:56.628475 121091 layer_factory.hpp:77] Creating layer rpn_cls_prob_reshape
I0630 16:03:56.628484 121091 net.cpp:106] Creating Layer rpn_cls_prob_reshape
I0630 16:03:56.628487 121091 net.cpp:454] rpn_cls_prob_reshape <- rpn_cls_prob
I0630 16:03:56.628492 121091 net.cpp:411] rpn_cls_prob_reshape -> rpn_cls_prob_reshape
I0630 16:03:56.628518 121091 net.cpp:150] Setting up rpn_cls_prob_reshape
I0630 16:03:56.628523 121091 net.cpp:157] Top shape: 1 18 14 14 (3528)
I0630 16:03:56.628526 121091 net.cpp:165] Memory required for data: 116894400
I0630 16:03:56.628530 121091 layer_factory.hpp:77] Creating layer proposal
I0630 16:03:56.954308 121091 net.cpp:106] Creating Layer proposal
I0630 16:03:56.954339 121091 net.cpp:454] proposal <- rpn_cls_prob_reshape
I0630 16:03:56.954347 121091 net.cpp:454] proposal <- rpn_bbox_pred
I0630 16:03:56.954352 121091 net.cpp:454] proposal <- im_info
I0630 16:03:56.954360 121091 net.cpp:411] proposal -> rois
I0630 16:03:56.955335 121091 net.cpp:150] Setting up proposal
I0630 16:03:56.955353 121091 net.cpp:157] Top shape: 1 5 (5)
I0630 16:03:56.955356 121091 net.cpp:165] Memory required for data: 116894420
I0630 16:03:56.955361 121091 layer_factory.hpp:77] Creating layer roi_pool5
I0630 16:03:56.955374 121091 net.cpp:106] Creating Layer roi_pool5
I0630 16:03:56.955377 121091 net.cpp:454] roi_pool5 <- conv5_3_relu5_3_0_split_1
I0630 16:03:56.955384 121091 net.cpp:454] roi_pool5 <- rois
I0630 16:03:56.955389 121091 net.cpp:411] roi_pool5 -> pool5
I0630 16:03:56.955399 121091 roi_pooling_layer.cpp:30] Spatial scale: 0.0625
I0630 16:03:56.955462 121091 net.cpp:150] Setting up roi_pool5
I0630 16:03:56.955468 121091 net.cpp:157] Top shape: 1 512 7 7 (25088)
I0630 16:03:56.955472 121091 net.cpp:165] Memory required for data: 116994772
I0630 16:03:56.955476 121091 layer_factory.hpp:77] Creating layer fc6
I0630 16:03:56.955485 121091 net.cpp:106] Creating Layer fc6
I0630 16:03:56.955488 121091 net.cpp:454] fc6 <- pool5
I0630 16:03:56.955493 121091 net.cpp:411] fc6 -> fc6
I0630 16:03:57.208577 121091 net.cpp:150] Setting up fc6
I0630 16:03:57.208616 121091 net.cpp:157] Top shape: 1 4096 (4096)
I0630 16:03:57.208621 121091 net.cpp:165] Memory required for data: 117011156
I0630 16:03:57.208652 121091 layer_factory.hpp:77] Creating layer relu6
I0630 16:03:57.208665 121091 net.cpp:106] Creating Layer relu6
I0630 16:03:57.208670 121091 net.cpp:454] relu6 <- fc6
I0630 16:03:57.208676 121091 net.cpp:397] relu6 -> fc6 (in-place)
I0630 16:03:57.209241 121091 net.cpp:150] Setting up relu6
I0630 16:03:57.209251 121091 net.cpp:157] Top shape: 1 4096 (4096)
I0630 16:03:57.209254 121091 net.cpp:165] Memory required for data: 117027540
I0630 16:03:57.209257 121091 layer_factory.hpp:77] Creating layer fc7
I0630 16:03:57.209280 121091 net.cpp:106] Creating Layer fc7
I0630 16:03:57.209283 121091 net.cpp:454] fc7 <- fc6
I0630 16:03:57.209290 121091 net.cpp:411] fc7 -> fc7
I0630 16:03:57.248744 121091 net.cpp:150] Setting up fc7
I0630 16:03:57.248781 121091 net.cpp:157] Top shape: 1 4096 (4096)
I0630 16:03:57.248790 121091 net.cpp:165] Memory required for data: 117043924
I0630 16:03:57.248819 121091 layer_factory.hpp:77] Creating layer relu7
I0630 16:03:57.248831 121091 net.cpp:106] Creating Layer relu7
I0630 16:03:57.248836 121091 net.cpp:454] relu7 <- fc7
I0630 16:03:57.248842 121091 net.cpp:397] relu7 -> fc7 (in-place)
I0630 16:03:57.249368 121091 net.cpp:150] Setting up relu7
I0630 16:03:57.249378 121091 net.cpp:157] Top shape: 1 4096 (4096)
I0630 16:03:57.249382 121091 net.cpp:165] Memory required for data: 117060308
I0630 16:03:57.249385 121091 layer_factory.hpp:77] Creating layer fc7_relu7_0_split
I0630 16:03:57.249392 121091 net.cpp:106] Creating Layer fc7_relu7_0_split
I0630 16:03:57.249394 121091 net.cpp:454] fc7_relu7_0_split <- fc7
I0630 16:03:57.249402 121091 net.cpp:411] fc7_relu7_0_split -> fc7_relu7_0_split_0
I0630 16:03:57.249408 121091 net.cpp:411] fc7_relu7_0_split -> fc7_relu7_0_split_1
I0630 16:03:57.249449 121091 net.cpp:150] Setting up fc7_relu7_0_split
I0630 16:03:57.249454 121091 net.cpp:157] Top shape: 1 4096 (4096)
I0630 16:03:57.249457 121091 net.cpp:157] Top shape: 1 4096 (4096)
I0630 16:03:57.249460 121091 net.cpp:165] Memory required for data: 117093076
I0630 16:03:57.249471 121091 layer_factory.hpp:77] Creating layer cls_score
I0630 16:03:57.249480 121091 net.cpp:106] Creating Layer cls_score
I0630 16:03:57.249482 121091 net.cpp:454] cls_score <- fc7_relu7_0_split_0
I0630 16:03:57.249488 121091 net.cpp:411] cls_score -> cls_score
I0630 16:03:57.250265 121091 net.cpp:150] Setting up cls_score
I0630 16:03:57.250274 121091 net.cpp:157] Top shape: 1 21 (21)
I0630 16:03:57.250277 121091 net.cpp:165] Memory required for data: 117093160
I0630 16:03:57.250283 121091 layer_factory.hpp:77] Creating layer bbox_pred
I0630 16:03:57.250289 121091 net.cpp:106] Creating Layer bbox_pred
I0630 16:03:57.250293 121091 net.cpp:454] bbox_pred <- fc7_relu7_0_split_1
I0630 16:03:57.250298 121091 net.cpp:411] bbox_pred -> bbox_pred
I0630 16:03:57.251370 121091 net.cpp:150] Setting up bbox_pred
I0630 16:03:57.251379 121091 net.cpp:157] Top shape: 1 84 (84)
I0630 16:03:57.251382 121091 net.cpp:165] Memory required for data: 117093496
I0630 16:03:57.251387 121091 layer_factory.hpp:77] Creating layer cls_prob
I0630 16:03:57.251394 121091 net.cpp:106] Creating Layer cls_prob
I0630 16:03:57.251397 121091 net.cpp:454] cls_prob <- cls_score
I0630 16:03:57.251402 121091 net.cpp:411] cls_prob -> cls_prob
I0630 16:03:57.251626 121091 net.cpp:150] Setting up cls_prob
I0630 16:03:57.251632 121091 net.cpp:157] Top shape: 1 21 (21)
I0630 16:03:57.251636 121091 net.cpp:165] Memory required for data: 117093580
I0630 16:03:57.251638 121091 net.cpp:228] cls_prob does not need backward computation.
I0630 16:03:57.251641 121091 net.cpp:228] bbox_pred does not need backward computation.
I0630 16:03:57.251644 121091 net.cpp:228] cls_score does not need backward computation.
I0630 16:03:57.251647 121091 net.cpp:228] fc7_relu7_0_split does not need backward computation.
…
