…
/data/stars/share/libraries/anaconda/lib/python2.7/site-packages/matplotlib/__init__.py:1401: UserWarning:  This call to matplotlib.use() has no effect
because the backend has already been chosen;
matplotlib.use() must be called *before* pylab, matplotlib.pyplot,
or matplotlib.backends is imported for the first time.

  warnings.warn(_use_error_msg)
WARNING: Logging before InitGoogleLogging() is written to STDERR
I0703 18:03:39.775388 15332 net.cpp:49] Initializing net from parameters: 
name: "VGG_ILSVRC_16_layers"
input: "data"
input: "im_info"
state {
  phase: TEST
}
input_shape {
  dim: 1
  dim: 3
  dim: 224
  dim: 224
}
input_shape {
  dim: 1
  dim: 3
}
layer {
  name: "conv1_1"
  type: "Convolution"
  bottom: "data"
  top: "conv1_1"
  convolution_param {
    num_output: 64
    pad: 1
    kernel_size: 3
  }
}
layer {
  name: "relu1_1"
  type: "ReLU"
  bottom: "conv1_1"
  top: "conv1_1"
}
layer {
  name: "conv1_2"
  type: "Convolution"
  bottom: "conv1_1"
  top: "conv1_2"
  convolution_param {
    num_output: 64
    pad: 1
    kernel_size: 3
  }
}
layer {
  name: "relu1_2"
  type: "ReLU"
  bottom: "conv1_2"
  top: "conv1_2"
}
layer {
  name: "pool1"
  type: "Pooling"
  bottom: "conv1_2"
  top: "pool1"
  pooling_param {
    pool: MAX
    kernel_size: 2
    stride: 2
  }
}
layer {
  name: "conv2_1"
  type: "Convolution"
  bottom: "pool1"
  top: "conv2_1"
  convolution_param {
    num_output: 128
    pad: 1
    kernel_size: 3
  }
}
layer {
  name: "relu2_1"
  type: "ReLU"
  bottom: "conv2_1"
  top: "conv2_1"
}
layer {
  name: "conv2_2"
  type: "Convolution"
  bottom: "conv2_1"
  top: "conv2_2"
  convolution_param {
    num_output: 128
    pad: 1
    kernel_size: 3
  }
}
layer {
  name: "relu2_2"
  type: "ReLU"
  bottom: "conv2_2"
  top: "conv2_2"
}
layer {
  name: "pool2"
  type: "Pooling"
  bottom: "conv2_2"
  top: "pool2"
  pooling_param {
    pool: MAX
    kernel_size: 2
    stride: 2
  }
}
layer {
  name: "conv3_1"
  type: "Convolution"
  bottom: "pool2"
  top: "conv3_1"
  convolution_param {
    num_output: 256
    pad: 1
    kernel_size: 3
  }
}
layer {
  name: "relu3_1"
  type: "ReLU"
  bottom: "conv3_1"
  top: "conv3_1"
}
layer {
  name: "conv3_2"
  type: "Convolution"
  bottom: "conv3_1"
  top: "conv3_2"
  convolution_param {
    num_output: 256
    pad: 1
    kernel_size: 3
  }
}
layer {
  name: "relu3_2"
  type: "ReLU"
  bottom: "conv3_2"
  top: "conv3_2"
}
layer {
  name: "conv3_3"
  type: "Convolution"
  bottom: "conv3_2"
  top: "conv3_3"
  convolution_param {
    num_output: 256
    pad: 1
    kernel_size: 3
  }
}
layer {
  name: "relu3_3"
  type: "ReLU"
  bottom: "conv3_3"
  top: "conv3_3"
}
layer {
  name: "pool3"
  type: "Pooling"
  bottom: "conv3_3"
  top: "pool3"
  pooling_param {
    pool: MAX
    kernel_size: 2
    stride: 2
  }
}
layer {
  name: "conv4_1"
  type: "Convolution"
  bottom: "pool3"
  top: "conv4_1"
  convolution_param {
    num_output: 512
    pad: 1
    kernel_size: 3
  }
}
layer {
  name: "relu4_1"
  type: "ReLU"
  bottom: "conv4_1"
  top: "conv4_1"
}
layer {
  name: "conv4_2"
  type: "Convolution"
  bottom: "conv4_1"
  top: "conv4_2"
  convolution_param {
    num_output: 512
    pad: 1
    kernel_size: 3
  }
}
layer {
  name: "relu4_2"
  type: "ReLU"
  bottom: "conv4_2"
  top: "conv4_2"
}
layer {
  name: "conv4_3"
  type: "Convolution"
  bottom: "conv4_2"
  top: "conv4_3"
  convolution_param {
    num_output: 512
    pad: 1
    kernel_size: 3
  }
}
layer {
  name: "relu4_3"
  type: "ReLU"
  bottom: "conv4_3"
  top: "conv4_3"
}
layer {
  name: "pool4"
  type: "Pooling"
  bottom: "conv4_3"
  top: "pool4"
  pooling_param {
    pool: MAX
    kernel_size: 2
    stride: 2
  }
}
layer {
  name: "conv5_1"
  type: "Convolution"
  bottom: "pool4"
  top: "conv5_1"
  convolution_param {
    num_output: 512
    pad: 1
    kernel_size: 3
  }
}
layer {
  name: "relu5_1"
  type: "ReLU"
  bottom: "conv5_1"
  top: "conv5_1"
}
layer {
  name: "conv5_2"
  type: "Convolution"
  bottom: "conv5_1"
  top: "conv5_2"
  convolution_param {
    num_output: 512
    pad: 1
    kernel_size: 3
  }
}
layer {
  name: "relu5_2"
  type: "ReLU"
  bottom: "conv5_2"
  top: "conv5_2"
}
layer {
  name: "conv5_3"
  type: "Convolution"
  bottom: "conv5_2"
  top: "conv5_3"
  convolution_param {
    num_output: 512
    pad: 1
    kernel_size: 3
  }
}
layer {
  name: "relu5_3"
  type: "ReLU"
  bottom: "conv5_3"
  top: "conv5_3"
}
layer {
  name: "rpn_conv/3x3"
  type: "Convolution"
  bottom: "conv5_3"
  top: "rpn/output"
  convolution_param {
    num_output: 512
    pad: 1
    kernel_size: 3
    stride: 1
  }
}
layer {
  name: "rpn_relu/3x3"
  type: "ReLU"
  bottom: "rpn/output"
  top: "rpn/output"
}
layer {
  name: "rpn_cls_score"
  type: "Convolution"
  bottom: "rpn/output"
  top: "rpn_cls_score"
  convolution_param {
    num_output: 18
    pad: 0
    kernel_size: 1
    stride: 1
  }
}
layer {
  name: "rpn_bbox_pred"
  type: "Convolution"
  bottom: "rpn/output"
  top: "rpn_bbox_pred"
  convolution_param {
    num_output: 36
    pad: 0
    kernel_size: 1
    stride: 1
  }
}
layer {
  name: "rpn_cls_score_reshape"
  type: "Reshape"
  bottom: "rpn_cls_score"
  top: "rpn_cls_score_reshape"
  reshape_param {
    shape {
      dim: 0
      dim: 2
      dim: -1
      dim: 0
    }
  }
}
layer {
  name: "rpn_cls_prob"
  type: "Softmax"
  bottom: "rpn_cls_score_reshape"
  top: "rpn_cls_prob"
}
layer {
  name: "rpn_cls_prob_reshape"
  type: "Reshape"
  bottom: "rpn_cls_prob"
  top: "rpn_cls_prob_reshape"
  reshape_param {
    shape {
      dim: 0
      dim: 18
      dim: -1
      dim: 0
    }
  }
}
layer {
  name: "proposal"
  type: "Python"
  bottom: "rpn_cls_prob_reshape"
  bottom: "rpn_bbox_pred"
  bottom: "im_info"
  top: "rois"
  python_param {
    module: "rpn.proposal_layer"
    layer: "ProposalLayer"
    param_str: "\'feat_stride\': 16"
  }
}
layer {
  name: "roi_pool5"
  type: "ROIPooling"
  bottom: "conv5_3"
  bottom: "rois"
  top: "pool5"
  roi_pooling_param {
    pooled_h: 7
    pooled_w: 7
    spatial_scale: 0.0625
  }
}
layer {
  name: "fc6"
  type: "InnerProduct"
  bottom: "pool5"
  top: "fc6"
  inner_product_param {
    num_output: 4096
  }
}
layer {
  name: "relu6"
  type: "ReLU"
  bottom: "fc6"
  top: "fc6"
}
layer {
  name: "fc7"
  type: "InnerProduct"
  bottom: "fc6"
  top: "fc7"
  inner_product_param {
    num_output: 4096
  }
}
layer {
  name: "relu7"
  type: "ReLU"
  bottom: "fc7"
  top: "fc7"
}
layer {
  name: "cls_score"
  type: "InnerProduct"
  bottom: "fc7"
  top: "cls_score"
  inner_product_param {
    num_output: 21
  }
}
layer {
  name: "bbox_pred"
  type: "InnerProduct"
  bottom: "fc7"
  top: "bbox_pred"
  inner_product_param {
    num_output: 84
  }
}
layer {
  name: "cls_prob"
  type: "Softmax"
  bottom: "cls_score"
  top: "cls_prob"
}
I0703 18:03:39.775598 15332 net.cpp:413] Input 0 -> data
I0703 18:03:40.229113 15332 net.cpp:413] Input 1 -> im_info
I0703 18:03:40.229185 15332 layer_factory.hpp:77] Creating layer conv1_1
I0703 18:03:40.229208 15332 net.cpp:106] Creating Layer conv1_1
I0703 18:03:40.229214 15332 net.cpp:454] conv1_1 <- data
I0703 18:03:40.229223 15332 net.cpp:411] conv1_1 -> conv1_1
I0703 18:03:40.428757 15332 net.cpp:150] Setting up conv1_1
I0703 18:03:40.428794 15332 net.cpp:157] Top shape: 1 64 224 224 (3211264)
I0703 18:03:40.428799 15332 net.cpp:165] Memory required for data: 12845056
I0703 18:03:40.428819 15332 layer_factory.hpp:77] Creating layer relu1_1
I0703 18:03:40.428834 15332 net.cpp:106] Creating Layer relu1_1
I0703 18:03:40.428839 15332 net.cpp:454] relu1_1 <- conv1_1
I0703 18:03:40.428846 15332 net.cpp:397] relu1_1 -> conv1_1 (in-place)
I0703 18:03:40.429175 15332 net.cpp:150] Setting up relu1_1
I0703 18:03:40.429188 15332 net.cpp:157] Top shape: 1 64 224 224 (3211264)
I0703 18:03:40.429190 15332 net.cpp:165] Memory required for data: 25690112
I0703 18:03:40.429195 15332 layer_factory.hpp:77] Creating layer conv1_2
I0703 18:03:40.429208 15332 net.cpp:106] Creating Layer conv1_2
I0703 18:03:40.429211 15332 net.cpp:454] conv1_2 <- conv1_1
I0703 18:03:40.429219 15332 net.cpp:411] conv1_2 -> conv1_2
I0703 18:03:40.430469 15332 net.cpp:150] Setting up conv1_2
I0703 18:03:40.430482 15332 net.cpp:157] Top shape: 1 64 224 224 (3211264)
I0703 18:03:40.430486 15332 net.cpp:165] Memory required for data: 38535168
I0703 18:03:40.430497 15332 layer_factory.hpp:77] Creating layer relu1_2
I0703 18:03:40.430505 15332 net.cpp:106] Creating Layer relu1_2
I0703 18:03:40.430508 15332 net.cpp:454] relu1_2 <- conv1_2
I0703 18:03:40.430515 15332 net.cpp:397] relu1_2 -> conv1_2 (in-place)
I0703 18:03:40.430683 15332 net.cpp:150] Setting up relu1_2
I0703 18:03:40.430692 15332 net.cpp:157] Top shape: 1 64 224 224 (3211264)
I0703 18:03:40.430696 15332 net.cpp:165] Memory required for data: 51380224
I0703 18:03:40.430701 15332 layer_factory.hpp:77] Creating layer pool1
I0703 18:03:40.430711 15332 net.cpp:106] Creating Layer pool1
I0703 18:03:40.430714 15332 net.cpp:454] pool1 <- conv1_2
I0703 18:03:40.430721 15332 net.cpp:411] pool1 -> pool1
I0703 18:03:40.430763 15332 net.cpp:150] Setting up pool1
I0703 18:03:40.430770 15332 net.cpp:157] Top shape: 1 64 112 112 (802816)
I0703 18:03:40.430773 15332 net.cpp:165] Memory required for data: 54591488
I0703 18:03:40.430778 15332 layer_factory.hpp:77] Creating layer conv2_1
I0703 18:03:40.430790 15332 net.cpp:106] Creating Layer conv2_1
I0703 18:03:40.430794 15332 net.cpp:454] conv2_1 <- pool1
I0703 18:03:40.430800 15332 net.cpp:411] conv2_1 -> conv2_1
I0703 18:03:40.433229 15332 net.cpp:150] Setting up conv2_1
I0703 18:03:40.433243 15332 net.cpp:157] Top shape: 1 128 112 112 (1605632)
I0703 18:03:40.433248 15332 net.cpp:165] Memory required for data: 61014016
I0703 18:03:40.433257 15332 layer_factory.hpp:77] Creating layer relu2_1
I0703 18:03:40.433265 15332 net.cpp:106] Creating Layer relu2_1
I0703 18:03:40.433269 15332 net.cpp:454] relu2_1 <- conv2_1
I0703 18:03:40.433275 15332 net.cpp:397] relu2_1 -> conv2_1 (in-place)
I0703 18:03:40.433612 15332 net.cpp:150] Setting up relu2_1
I0703 18:03:40.433624 15332 net.cpp:157] Top shape: 1 128 112 112 (1605632)
I0703 18:03:40.433627 15332 net.cpp:165] Memory required for data: 67436544
I0703 18:03:40.433632 15332 layer_factory.hpp:77] Creating layer conv2_2
I0703 18:03:40.433640 15332 net.cpp:106] Creating Layer conv2_2
I0703 18:03:40.433645 15332 net.cpp:454] conv2_2 <- conv2_1
I0703 18:03:40.433651 15332 net.cpp:411] conv2_2 -> conv2_2
I0703 18:03:40.434707 15332 net.cpp:150] Setting up conv2_2
I0703 18:03:40.434721 15332 net.cpp:157] Top shape: 1 128 112 112 (1605632)
I0703 18:03:40.434725 15332 net.cpp:165] Memory required for data: 73859072
I0703 18:03:40.434733 15332 layer_factory.hpp:77] Creating layer relu2_2
I0703 18:03:40.434743 15332 net.cpp:106] Creating Layer relu2_2
I0703 18:03:40.434748 15332 net.cpp:454] relu2_2 <- conv2_2
I0703 18:03:40.434754 15332 net.cpp:397] relu2_2 -> conv2_2 (in-place)
I0703 18:03:40.435127 15332 net.cpp:150] Setting up relu2_2
I0703 18:03:40.435139 15332 net.cpp:157] Top shape: 1 128 112 112 (1605632)
I0703 18:03:40.435143 15332 net.cpp:165] Memory required for data: 80281600
I0703 18:03:40.435148 15332 layer_factory.hpp:77] Creating layer pool2
I0703 18:03:40.435154 15332 net.cpp:106] Creating Layer pool2
I0703 18:03:40.435158 15332 net.cpp:454] pool2 <- conv2_2
I0703 18:03:40.435164 15332 net.cpp:411] pool2 -> pool2
I0703 18:03:40.435210 15332 net.cpp:150] Setting up pool2
I0703 18:03:40.435217 15332 net.cpp:157] Top shape: 1 128 56 56 (401408)
I0703 18:03:40.435220 15332 net.cpp:165] Memory required for data: 81887232
I0703 18:03:40.435225 15332 layer_factory.hpp:77] Creating layer conv3_1
I0703 18:03:40.435233 15332 net.cpp:106] Creating Layer conv3_1
I0703 18:03:40.435238 15332 net.cpp:454] conv3_1 <- pool2
I0703 18:03:40.435245 15332 net.cpp:411] conv3_1 -> conv3_1
I0703 18:03:40.437223 15332 net.cpp:150] Setting up conv3_1
I0703 18:03:40.437237 15332 net.cpp:157] Top shape: 1 256 56 56 (802816)
I0703 18:03:40.437240 15332 net.cpp:165] Memory required for data: 85098496
I0703 18:03:40.437252 15332 layer_factory.hpp:77] Creating layer relu3_1
I0703 18:03:40.437258 15332 net.cpp:106] Creating Layer relu3_1
I0703 18:03:40.437265 15332 net.cpp:454] relu3_1 <- conv3_1
I0703 18:03:40.437273 15332 net.cpp:397] relu3_1 -> conv3_1 (in-place)
I0703 18:03:40.437469 15332 net.cpp:150] Setting up relu3_1
I0703 18:03:40.437476 15332 net.cpp:157] Top shape: 1 256 56 56 (802816)
I0703 18:03:40.437480 15332 net.cpp:165] Memory required for data: 88309760
I0703 18:03:40.437484 15332 layer_factory.hpp:77] Creating layer conv3_2
I0703 18:03:40.437494 15332 net.cpp:106] Creating Layer conv3_2
I0703 18:03:40.437499 15332 net.cpp:454] conv3_2 <- conv3_1
I0703 18:03:40.437507 15332 net.cpp:411] conv3_2 -> conv3_2
I0703 18:03:40.440264 15332 net.cpp:150] Setting up conv3_2
I0703 18:03:40.440279 15332 net.cpp:157] Top shape: 1 256 56 56 (802816)
I0703 18:03:40.440284 15332 net.cpp:165] Memory required for data: 91521024
I0703 18:03:40.440292 15332 layer_factory.hpp:77] Creating layer relu3_2
I0703 18:03:40.440299 15332 net.cpp:106] Creating Layer relu3_2
I0703 18:03:40.440304 15332 net.cpp:454] relu3_2 <- conv3_2
I0703 18:03:40.440310 15332 net.cpp:397] relu3_2 -> conv3_2 (in-place)
I0703 18:03:40.440668 15332 net.cpp:150] Setting up relu3_2
I0703 18:03:40.440680 15332 net.cpp:157] Top shape: 1 256 56 56 (802816)
I0703 18:03:40.440683 15332 net.cpp:165] Memory required for data: 94732288
I0703 18:03:40.440687 15332 layer_factory.hpp:77] Creating layer conv3_3
I0703 18:03:40.440698 15332 net.cpp:106] Creating Layer conv3_3
I0703 18:03:40.440704 15332 net.cpp:454] conv3_3 <- conv3_2
I0703 18:03:40.440711 15332 net.cpp:411] conv3_3 -> conv3_3
I0703 18:03:40.443493 15332 net.cpp:150] Setting up conv3_3
I0703 18:03:40.443509 15332 net.cpp:157] Top shape: 1 256 56 56 (802816)
I0703 18:03:40.443513 15332 net.cpp:165] Memory required for data: 97943552
I0703 18:03:40.443521 15332 layer_factory.hpp:77] Creating layer relu3_3
I0703 18:03:40.443528 15332 net.cpp:106] Creating Layer relu3_3
I0703 18:03:40.443532 15332 net.cpp:454] relu3_3 <- conv3_3
I0703 18:03:40.443538 15332 net.cpp:397] relu3_3 -> conv3_3 (in-place)
I0703 18:03:40.443893 15332 net.cpp:150] Setting up relu3_3
I0703 18:03:40.443905 15332 net.cpp:157] Top shape: 1 256 56 56 (802816)
I0703 18:03:40.443908 15332 net.cpp:165] Memory required for data: 101154816
I0703 18:03:40.443913 15332 layer_factory.hpp:77] Creating layer pool3
I0703 18:03:40.443923 15332 net.cpp:106] Creating Layer pool3
I0703 18:03:40.443929 15332 net.cpp:454] pool3 <- conv3_3
I0703 18:03:40.443936 15332 net.cpp:411] pool3 -> pool3
I0703 18:03:40.443981 15332 net.cpp:150] Setting up pool3
I0703 18:03:40.443989 15332 net.cpp:157] Top shape: 1 256 28 28 (200704)
I0703 18:03:40.443992 15332 net.cpp:165] Memory required for data: 101957632
I0703 18:03:40.443996 15332 layer_factory.hpp:77] Creating layer conv4_1
I0703 18:03:40.444005 15332 net.cpp:106] Creating Layer conv4_1
I0703 18:03:40.444008 15332 net.cpp:454] conv4_1 <- pool3
I0703 18:03:40.444015 15332 net.cpp:411] conv4_1 -> conv4_1
I0703 18:03:40.449141 15332 net.cpp:150] Setting up conv4_1
I0703 18:03:40.449156 15332 net.cpp:157] Top shape: 1 512 28 28 (401408)
I0703 18:03:40.449159 15332 net.cpp:165] Memory required for data: 103563264
I0703 18:03:40.449182 15332 layer_factory.hpp:77] Creating layer relu4_1
I0703 18:03:40.449190 15332 net.cpp:106] Creating Layer relu4_1
I0703 18:03:40.449195 15332 net.cpp:454] relu4_1 <- conv4_1
I0703 18:03:40.449203 15332 net.cpp:397] relu4_1 -> conv4_1 (in-place)
I0703 18:03:40.449395 15332 net.cpp:150] Setting up relu4_1
I0703 18:03:40.449404 15332 net.cpp:157] Top shape: 1 512 28 28 (401408)
I0703 18:03:40.449407 15332 net.cpp:165] Memory required for data: 105168896
I0703 18:03:40.449411 15332 layer_factory.hpp:77] Creating layer conv4_2
I0703 18:03:40.449422 15332 net.cpp:106] Creating Layer conv4_2
I0703 18:03:40.449426 15332 net.cpp:454] conv4_2 <- conv4_1
I0703 18:03:40.449434 15332 net.cpp:411] conv4_2 -> conv4_2
I0703 18:03:40.456806 15332 net.cpp:150] Setting up conv4_2
I0703 18:03:40.456820 15332 net.cpp:157] Top shape: 1 512 28 28 (401408)
I0703 18:03:40.456823 15332 net.cpp:165] Memory required for data: 106774528
I0703 18:03:40.456840 15332 layer_factory.hpp:77] Creating layer relu4_2
I0703 18:03:40.456848 15332 net.cpp:106] Creating Layer relu4_2
I0703 18:03:40.456852 15332 net.cpp:454] relu4_2 <- conv4_2
I0703 18:03:40.456861 15332 net.cpp:397] relu4_2 -> conv4_2 (in-place)
I0703 18:03:40.457209 15332 net.cpp:150] Setting up relu4_2
I0703 18:03:40.457249 15332 net.cpp:157] Top shape: 1 512 28 28 (401408)
I0703 18:03:40.457252 15332 net.cpp:165] Memory required for data: 108380160
I0703 18:03:40.457257 15332 layer_factory.hpp:77] Creating layer conv4_3
I0703 18:03:40.457267 15332 net.cpp:106] Creating Layer conv4_3
I0703 18:03:40.457271 15332 net.cpp:454] conv4_3 <- conv4_2
I0703 18:03:40.457278 15332 net.cpp:411] conv4_3 -> conv4_3
I0703 18:03:40.463892 15332 net.cpp:150] Setting up conv4_3
I0703 18:03:40.463912 15332 net.cpp:157] Top shape: 1 512 28 28 (401408)
I0703 18:03:40.463915 15332 net.cpp:165] Memory required for data: 109985792
I0703 18:03:40.463922 15332 layer_factory.hpp:77] Creating layer relu4_3
I0703 18:03:40.463929 15332 net.cpp:106] Creating Layer relu4_3
I0703 18:03:40.463934 15332 net.cpp:454] relu4_3 <- conv4_3
I0703 18:03:40.463940 15332 net.cpp:397] relu4_3 -> conv4_3 (in-place)
I0703 18:03:40.464289 15332 net.cpp:150] Setting up relu4_3
I0703 18:03:40.464299 15332 net.cpp:157] Top shape: 1 512 28 28 (401408)
I0703 18:03:40.464303 15332 net.cpp:165] Memory required for data: 111591424
I0703 18:03:40.464308 15332 layer_factory.hpp:77] Creating layer pool4
I0703 18:03:40.464316 15332 net.cpp:106] Creating Layer pool4
I0703 18:03:40.464321 15332 net.cpp:454] pool4 <- conv4_3
I0703 18:03:40.464326 15332 net.cpp:411] pool4 -> pool4
I0703 18:03:40.464372 15332 net.cpp:150] Setting up pool4
I0703 18:03:40.464378 15332 net.cpp:157] Top shape: 1 512 14 14 (100352)
I0703 18:03:40.464382 15332 net.cpp:165] Memory required for data: 111992832
I0703 18:03:40.464385 15332 layer_factory.hpp:77] Creating layer conv5_1
I0703 18:03:40.464395 15332 net.cpp:106] Creating Layer conv5_1
I0703 18:03:40.464399 15332 net.cpp:454] conv5_1 <- pool4
I0703 18:03:40.464404 15332 net.cpp:411] conv5_1 -> conv5_1
I0703 18:03:40.471128 15332 net.cpp:150] Setting up conv5_1
I0703 18:03:40.471144 15332 net.cpp:157] Top shape: 1 512 14 14 (100352)
I0703 18:03:40.471148 15332 net.cpp:165] Memory required for data: 112394240
I0703 18:03:40.471158 15332 layer_factory.hpp:77] Creating layer relu5_1
I0703 18:03:40.471166 15332 net.cpp:106] Creating Layer relu5_1
I0703 18:03:40.471171 15332 net.cpp:454] relu5_1 <- conv5_1
I0703 18:03:40.471179 15332 net.cpp:397] relu5_1 -> conv5_1 (in-place)
I0703 18:03:40.471380 15332 net.cpp:150] Setting up relu5_1
I0703 18:03:40.471390 15332 net.cpp:157] Top shape: 1 512 14 14 (100352)
I0703 18:03:40.471392 15332 net.cpp:165] Memory required for data: 112795648
I0703 18:03:40.471397 15332 layer_factory.hpp:77] Creating layer conv5_2
I0703 18:03:40.471407 15332 net.cpp:106] Creating Layer conv5_2
I0703 18:03:40.471411 15332 net.cpp:454] conv5_2 <- conv5_1
I0703 18:03:40.471417 15332 net.cpp:411] conv5_2 -> conv5_2
I0703 18:03:40.478297 15332 net.cpp:150] Setting up conv5_2
I0703 18:03:40.478312 15332 net.cpp:157] Top shape: 1 512 14 14 (100352)
I0703 18:03:40.478315 15332 net.cpp:165] Memory required for data: 113197056
I0703 18:03:40.478323 15332 layer_factory.hpp:77] Creating layer relu5_2
I0703 18:03:40.478330 15332 net.cpp:106] Creating Layer relu5_2
I0703 18:03:40.478335 15332 net.cpp:454] relu5_2 <- conv5_2
I0703 18:03:40.478344 15332 net.cpp:397] relu5_2 -> conv5_2 (in-place)
I0703 18:03:40.478703 15332 net.cpp:150] Setting up relu5_2
I0703 18:03:40.478713 15332 net.cpp:157] Top shape: 1 512 14 14 (100352)
I0703 18:03:40.478716 15332 net.cpp:165] Memory required for data: 113598464
I0703 18:03:40.478720 15332 layer_factory.hpp:77] Creating layer conv5_3
I0703 18:03:40.478730 15332 net.cpp:106] Creating Layer conv5_3
I0703 18:03:40.478735 15332 net.cpp:454] conv5_3 <- conv5_2
I0703 18:03:40.478741 15332 net.cpp:411] conv5_3 -> conv5_3
I0703 18:03:40.485363 15332 net.cpp:150] Setting up conv5_3
I0703 18:03:40.485383 15332 net.cpp:157] Top shape: 1 512 14 14 (100352)
I0703 18:03:40.485386 15332 net.cpp:165] Memory required for data: 113999872
I0703 18:03:40.485394 15332 layer_factory.hpp:77] Creating layer relu5_3
I0703 18:03:40.485402 15332 net.cpp:106] Creating Layer relu5_3
I0703 18:03:40.485407 15332 net.cpp:454] relu5_3 <- conv5_3
I0703 18:03:40.485412 15332 net.cpp:397] relu5_3 -> conv5_3 (in-place)
I0703 18:03:40.485766 15332 net.cpp:150] Setting up relu5_3
I0703 18:03:40.485777 15332 net.cpp:157] Top shape: 1 512 14 14 (100352)
I0703 18:03:40.485786 15332 net.cpp:165] Memory required for data: 114401280
I0703 18:03:40.485791 15332 layer_factory.hpp:77] Creating layer conv5_3_relu5_3_0_split
I0703 18:03:40.485803 15332 net.cpp:106] Creating Layer conv5_3_relu5_3_0_split
I0703 18:03:40.485808 15332 net.cpp:454] conv5_3_relu5_3_0_split <- conv5_3
I0703 18:03:40.485815 15332 net.cpp:411] conv5_3_relu5_3_0_split -> conv5_3_relu5_3_0_split_0
I0703 18:03:40.485821 15332 net.cpp:411] conv5_3_relu5_3_0_split -> conv5_3_relu5_3_0_split_1
I0703 18:03:40.485873 15332 net.cpp:150] Setting up conv5_3_relu5_3_0_split
I0703 18:03:40.485879 15332 net.cpp:157] Top shape: 1 512 14 14 (100352)
I0703 18:03:40.485883 15332 net.cpp:157] Top shape: 1 512 14 14 (100352)
I0703 18:03:40.485887 15332 net.cpp:165] Memory required for data: 115204096
I0703 18:03:40.485890 15332 layer_factory.hpp:77] Creating layer rpn_conv/3x3
I0703 18:03:40.485900 15332 net.cpp:106] Creating Layer rpn_conv/3x3
I0703 18:03:40.485904 15332 net.cpp:454] rpn_conv/3x3 <- conv5_3_relu5_3_0_split_0
I0703 18:03:40.485910 15332 net.cpp:411] rpn_conv/3x3 -> rpn/output
I0703 18:03:40.492835 15332 net.cpp:150] Setting up rpn_conv/3x3
I0703 18:03:40.492849 15332 net.cpp:157] Top shape: 1 512 14 14 (100352)
I0703 18:03:40.492853 15332 net.cpp:165] Memory required for data: 115605504
I0703 18:03:40.492861 15332 layer_factory.hpp:77] Creating layer rpn_relu/3x3
I0703 18:03:40.492874 15332 net.cpp:106] Creating Layer rpn_relu/3x3
I0703 18:03:40.492878 15332 net.cpp:454] rpn_relu/3x3 <- rpn/output
I0703 18:03:40.492884 15332 net.cpp:397] rpn_relu/3x3 -> rpn/output (in-place)
I0703 18:03:40.493073 15332 net.cpp:150] Setting up rpn_relu/3x3
I0703 18:03:40.493082 15332 net.cpp:157] Top shape: 1 512 14 14 (100352)
I0703 18:03:40.493085 15332 net.cpp:165] Memory required for data: 116006912
I0703 18:03:40.493089 15332 layer_factory.hpp:77] Creating layer rpn/output_rpn_relu/3x3_0_split
I0703 18:03:40.493094 15332 net.cpp:106] Creating Layer rpn/output_rpn_relu/3x3_0_split
I0703 18:03:40.493098 15332 net.cpp:454] rpn/output_rpn_relu/3x3_0_split <- rpn/output
I0703 18:03:40.493105 15332 net.cpp:411] rpn/output_rpn_relu/3x3_0_split -> rpn/output_rpn_relu/3x3_0_split_0
I0703 18:03:40.493113 15332 net.cpp:411] rpn/output_rpn_relu/3x3_0_split -> rpn/output_rpn_relu/3x3_0_split_1
I0703 18:03:40.493155 15332 net.cpp:150] Setting up rpn/output_rpn_relu/3x3_0_split
I0703 18:03:40.493161 15332 net.cpp:157] Top shape: 1 512 14 14 (100352)
I0703 18:03:40.493165 15332 net.cpp:157] Top shape: 1 512 14 14 (100352)
I0703 18:03:40.493168 15332 net.cpp:165] Memory required for data: 116809728
I0703 18:03:40.493172 15332 layer_factory.hpp:77] Creating layer rpn_cls_score
I0703 18:03:40.493185 15332 net.cpp:106] Creating Layer rpn_cls_score
I0703 18:03:40.493190 15332 net.cpp:454] rpn_cls_score <- rpn/output_rpn_relu/3x3_0_split_0
I0703 18:03:40.493196 15332 net.cpp:411] rpn_cls_score -> rpn_cls_score
I0703 18:03:40.494384 15332 net.cpp:150] Setting up rpn_cls_score
I0703 18:03:40.494396 15332 net.cpp:157] Top shape: 1 18 14 14 (3528)
I0703 18:03:40.494400 15332 net.cpp:165] Memory required for data: 116823840
I0703 18:03:40.494407 15332 layer_factory.hpp:77] Creating layer rpn_bbox_pred
I0703 18:03:40.494417 15332 net.cpp:106] Creating Layer rpn_bbox_pred
I0703 18:03:40.494422 15332 net.cpp:454] rpn_bbox_pred <- rpn/output_rpn_relu/3x3_0_split_1
I0703 18:03:40.494431 15332 net.cpp:411] rpn_bbox_pred -> rpn_bbox_pred
I0703 18:03:40.495602 15332 net.cpp:150] Setting up rpn_bbox_pred
I0703 18:03:40.495617 15332 net.cpp:157] Top shape: 1 36 14 14 (7056)
I0703 18:03:40.495621 15332 net.cpp:165] Memory required for data: 116852064
I0703 18:03:40.495628 15332 layer_factory.hpp:77] Creating layer rpn_cls_score_reshape
I0703 18:03:40.495640 15332 net.cpp:106] Creating Layer rpn_cls_score_reshape
I0703 18:03:40.495645 15332 net.cpp:454] rpn_cls_score_reshape <- rpn_cls_score
I0703 18:03:40.495653 15332 net.cpp:411] rpn_cls_score_reshape -> rpn_cls_score_reshape
I0703 18:03:40.495692 15332 net.cpp:150] Setting up rpn_cls_score_reshape
I0703 18:03:40.495698 15332 net.cpp:157] Top shape: 1 2 126 14 (3528)
I0703 18:03:40.495702 15332 net.cpp:165] Memory required for data: 116866176
I0703 18:03:40.495705 15332 layer_factory.hpp:77] Creating layer rpn_cls_prob
I0703 18:03:40.495712 15332 net.cpp:106] Creating Layer rpn_cls_prob
I0703 18:03:40.495715 15332 net.cpp:454] rpn_cls_prob <- rpn_cls_score_reshape
I0703 18:03:40.495721 15332 net.cpp:411] rpn_cls_prob -> rpn_cls_prob
I0703 18:03:40.495981 15332 net.cpp:150] Setting up rpn_cls_prob
I0703 18:03:40.495992 15332 net.cpp:157] Top shape: 1 2 126 14 (3528)
I0703 18:03:40.495995 15332 net.cpp:165] Memory required for data: 116880288
I0703 18:03:40.495999 15332 layer_factory.hpp:77] Creating layer rpn_cls_prob_reshape
I0703 18:03:40.496006 15332 net.cpp:106] Creating Layer rpn_cls_prob_reshape
I0703 18:03:40.496011 15332 net.cpp:454] rpn_cls_prob_reshape <- rpn_cls_prob
I0703 18:03:40.496016 15332 net.cpp:411] rpn_cls_prob_reshape -> rpn_cls_prob_reshape
I0703 18:03:40.496044 15332 net.cpp:150] Setting up rpn_cls_prob_reshape
I0703 18:03:40.496050 15332 net.cpp:157] Top shape: 1 18 14 14 (3528)
I0703 18:03:40.496053 15332 net.cpp:165] Memory required for data: 116894400
I0703 18:03:40.496057 15332 layer_factory.hpp:77] Creating layer proposal
I0703 18:03:40.556290 15332 net.cpp:106] Creating Layer proposal
I0703 18:03:40.556308 15332 net.cpp:454] proposal <- rpn_cls_prob_reshape
I0703 18:03:40.556313 15332 net.cpp:454] proposal <- rpn_bbox_pred
I0703 18:03:40.556318 15332 net.cpp:454] proposal <- im_info
I0703 18:03:40.556324 15332 net.cpp:411] proposal -> rois
I0703 18:03:40.557104 15332 net.cpp:150] Setting up proposal
I0703 18:03:40.557117 15332 net.cpp:157] Top shape: 1 5 (5)
I0703 18:03:40.557121 15332 net.cpp:165] Memory required for data: 116894420
I0703 18:03:40.557126 15332 layer_factory.hpp:77] Creating layer roi_pool5
I0703 18:03:40.557134 15332 net.cpp:106] Creating Layer roi_pool5
I0703 18:03:40.557138 15332 net.cpp:454] roi_pool5 <- conv5_3_relu5_3_0_split_1
I0703 18:03:40.557144 15332 net.cpp:454] roi_pool5 <- rois
I0703 18:03:40.557149 15332 net.cpp:411] roi_pool5 -> pool5
I0703 18:03:40.557159 15332 roi_pooling_layer.cpp:30] Spatial scale: 0.0625
I0703 18:03:40.557211 15332 net.cpp:150] Setting up roi_pool5
I0703 18:03:40.557216 15332 net.cpp:157] Top shape: 1 512 7 7 (25088)
I0703 18:03:40.557220 15332 net.cpp:165] Memory required for data: 116994772
I0703 18:03:40.557224 15332 layer_factory.hpp:77] Creating layer fc6
I0703 18:03:40.557232 15332 net.cpp:106] Creating Layer fc6
I0703 18:03:40.557235 15332 net.cpp:454] fc6 <- pool5
I0703 18:03:40.557240 15332 net.cpp:411] fc6 -> fc6
I0703 18:03:40.790370 15332 net.cpp:150] Setting up fc6
I0703 18:03:40.790405 15332 net.cpp:157] Top shape: 1 4096 (4096)
I0703 18:03:40.790408 15332 net.cpp:165] Memory required for data: 117011156
I0703 18:03:40.790429 15332 layer_factory.hpp:77] Creating layer relu6
I0703 18:03:40.790439 15332 net.cpp:106] Creating Layer relu6
I0703 18:03:40.790444 15332 net.cpp:454] relu6 <- fc6
I0703 18:03:40.790452 15332 net.cpp:397] relu6 -> fc6 (in-place)
I0703 18:03:40.790992 15332 net.cpp:150] Setting up relu6
I0703 18:03:40.791003 15332 net.cpp:157] Top shape: 1 4096 (4096)
I0703 18:03:40.791007 15332 net.cpp:165] Memory required for data: 117027540
I0703 18:03:40.791012 15332 layer_factory.hpp:77] Creating layer fc7
I0703 18:03:40.791019 15332 net.cpp:106] Creating Layer fc7
I0703 18:03:40.791023 15332 net.cpp:454] fc7 <- fc6
I0703 18:03:40.791029 15332 net.cpp:411] fc7 -> fc7
I0703 18:03:40.829428 15332 net.cpp:150] Setting up fc7
I0703 18:03:40.829461 15332 net.cpp:157] Top shape: 1 4096 (4096)
I0703 18:03:40.829465 15332 net.cpp:165] Memory required for data: 117043924
I0703 18:03:40.829476 15332 layer_factory.hpp:77] Creating layer relu7
I0703 18:03:40.829486 15332 net.cpp:106] Creating Layer relu7
I0703 18:03:40.829493 15332 net.cpp:454] relu7 <- fc7
I0703 18:03:40.829499 15332 net.cpp:397] relu7 -> fc7 (in-place)
I0703 18:03:40.830032 15332 net.cpp:150] Setting up relu7
I0703 18:03:40.830042 15332 net.cpp:157] Top shape: 1 4096 (4096)
I0703 18:03:40.830046 15332 net.cpp:165] Memory required for data: 117060308
I0703 18:03:40.830050 15332 layer_factory.hpp:77] Creating layer fc7_relu7_0_split
I0703 18:03:40.830058 15332 net.cpp:106] Creating Layer fc7_relu7_0_split
I0703 18:03:40.830061 15332 net.cpp:454] fc7_relu7_0_split <- fc7
I0703 18:03:40.830067 15332 net.cpp:411] fc7_relu7_0_split -> fc7_relu7_0_split_0
I0703 18:03:40.830075 15332 net.cpp:411] fc7_relu7_0_split -> fc7_relu7_0_split_1
I0703 18:03:40.830117 15332 net.cpp:150] Setting up fc7_relu7_0_split
I0703 18:03:40.830123 15332 net.cpp:157] Top shape: 1 4096 (4096)
I0703 18:03:40.830127 15332 net.cpp:157] Top shape: 1 4096 (4096)
I0703 18:03:40.830130 15332 net.cpp:165] Memory required for data: 117093076
I0703 18:03:40.830133 15332 layer_factory.hpp:77] Creating layer cls_score
I0703 18:03:40.830140 15332 net.cpp:106] Creating Layer cls_score
I0703 18:03:40.830144 15332 net.cpp:454] cls_score <- fc7_relu7_0_split_0
I0703 18:03:40.830152 15332 net.cpp:411] cls_score -> cls_score
I0703 18:03:40.830952 15332 net.cpp:150] Setting up cls_score
I0703 18:03:40.830962 15332 net.cpp:157] Top shape: 1 21 (21)
I0703 18:03:40.830966 15332 net.cpp:165] Memory required for data: 117093160
I0703 18:03:40.830973 15332 layer_factory.hpp:77] Creating layer bbox_pred
I0703 18:03:40.830981 15332 net.cpp:106] Creating Layer bbox_pred
I0703 18:03:40.830984 15332 net.cpp:454] bbox_pred <- fc7_relu7_0_split_1
I0703 18:03:40.830991 15332 net.cpp:411] bbox_pred -> bbox_pred
I0703 18:03:40.832083 15332 net.cpp:150] Setting up bbox_pred
I0703 18:03:40.832093 15332 net.cpp:157] Top shape: 1 84 (84)
I0703 18:03:40.832098 15332 net.cpp:165] Memory required for data: 117093496
I0703 18:03:40.832104 15332 layer_factory.hpp:77] Creating layer cls_prob
I0703 18:03:40.832111 15332 net.cpp:106] Creating Layer cls_prob
I0703 18:03:40.832115 15332 net.cpp:454] cls_prob <- cls_score
I0703 18:03:40.832120 15332 net.cpp:411] cls_prob -> cls_prob
I0703 18:03:40.832366 15332 net.cpp:150] Setting up cls_prob
I0703 18:03:40.832375 15332 net.cpp:157] Top shape: 1 21 (21)
I0703 18:03:40.832377 15332 net.cpp:165] Memory required for data: 117093580
I0703 18:03:40.832381 15332 net.cpp:228] cls_prob does not need backward computation.
I0703 18:03:40.832386 15332 net.cpp:228] bbox_pred does not need backward computation.
I0703 18:03:40.832388 15332 net.cpp:228] cls_score does not need backward computation.
I0703 18:03:40.832392 15332 net.cpp:228] fc7_relu7_0_split does not need backward computation.
…
